checkpoint/model_epoch_69.pth (torch_old, 708579 bytes, 59 tensors)

featurefusion.Prewitt_Operator.weight f4 [3, 1, 5, 5]
0	0x40000000	2.0
1	0x3f800000	1.0
2	0x00000000	0.0
3	0xbf800000	-1.0
4	0xc0000000	-2.0
5	0x40000000	2.0
6	0x3f800000	1.0
7	0x00000000	0.0
8	0xbf800000	-1.0
9	0xc0000000	-2.0
10	0x40000000	2.0
11	0x3f800000	1.0
12	0x00000000	0.0
13	0xbf800000	-1.0
14	0xc0000000	-2.0
15	0x40000000	2.0
16	0x3f800000	1.0
17	0x00000000	0.0
18	0xbf800000	-1.0
19	0xc0000000	-2.0
20	0x40000000	2.0
21	0x3f800000	1.0
22	0x00000000	0.0
23	0xbf800000	-1.0
24	0xc0000000	-2.0
25	0x40000000	2.0
26	0x3f800000	1.0
27	0x00000000	0.0
28	0xbf800000	-1.0
29	0xc0000000	-2.0
30	0x40000000	2.0
31	0x3f800000	1.0
32	0x00000000	0.0
33	0xbf800000	-1.0
34	0xc0000000	-2.0
35	0x40000000	2.0
36	0x3f800000	1.0
37	0x00000000	0.0
38	0xbf800000	-1.0
39	0xc0000000	-2.0
40	0x40000000	2.0
41	0x3f800000	1.0
42	0x00000000	0.0
43	0xbf800000	-1.0
44	0xc0000000	-2.0
45	0x40000000	2.0
46	0x3f800000	1.0
47	0x00000000	0.0
48	0xbf800000	-1.0
49	0xc0000000	-2.0
50	0x40000000	2.0
51	0x3f800000	1.0
52	0x00000000	0.0
53	0xbf800000	-1.0
54	0xc0000000	-2.0
55	0x40000000	2.0
56	0x3f800000	1.0
57	0x00000000	0.0
58	0xbf800000	-1.0
59	0xc0000000	-2.0
60	0x40000000	2.0
61	0x3f800000	1.0
62	0x00000000	0.0
63	0xbf800000	-1.0
64	0xc0000000	-2.0
65	0x40000000	2.0
66	0x3f800000	1.0
67	0x00000000	0.0
68	0xbf800000	-1.0
69	0xc0000000	-2.0
70	0x40000000	2.0
71	0x3f800000	1.0
72	0x00000000	0.0
73	0xbf800000	-1.0
74	0xc0000000	-2.0

firstConvLayer.conv.weight f4 [32, 6, 5, 5]
0	0x40863602	4.1940928
1	0x4052b99b	3.2925785
2	0x401ba9d7	2.4322412
3	0x4043ad4b	3.057452
4	0x3f2b37c7	0.66881984
5	0x4059e96d	3.4048722
6	0x404c8d76	3.196134
7	0x401f48a2	2.4888082
8	0x405f2343	3.4865272
9	0x3face4e1	1.3507348
10	0x4055da35	3.3414433
11	0x404e278a	3.2211633
12	0x402dc367	2.7150514
13	0x40637b77	3.5544107
14	0x3f92ed4c	1.1478667
15	0x404f6091	3.240269
16	0x401e2b07	2.4713762
17	0x4036807a	2.8515916
18	0x404fe8e6	3.24859
19	0x3f3bf21b	0.734163
20	0x40561da7	3.3455598
21	0x400f9872	2.2436795
22	0x403875b8	2.882185
23	0x40385121	2.8799517
24	0x3f1fe01c	0.6245134
25	0x4036d572	2.8567777
26	0x403559d3	2.8336074
27	0x400c27aa	2.189921
28	0x4027b2c6	2.6202865
29	0x3fec1609	1.8444225
30	0x40384dfa	2.8797593
31	0x401aa07c	2.4160452
32	0x401611e6	2.3448424
33	0x4055c693	3.340245
34	0x401ed961	2.4820178
35	0x40401f74	3.0019197
36	0x4020e546	2.5139937
37	0x400c5cda	2.1931672
38	0x405b88f1	3.4302332
39	0x40070129	2.1094458
40	0x403a1b33	2.90791
41	0x401f66c9	2.4906485
42	0x4043297f	3.0494077
43	0x404c377a	3.190886
44	0x400422a1	2.0646136
45	0x40475dc0	3.115097
46	0x401c3ae1	2.4410937
47	0x4059c112	3.402409
48	0x403d8b73	2.9616363
49	0x3fe78580	1.8087616
50	0x40242ed4	2.5653582
51	0x402e6890	2.725132
52	0x3fcf51de	1.6196859
53	0x403b2f69	2.9247687
54	0x3facdd9a	1.3505127
55	0x40064451	2.0979197
56	0x3fd7208f	1.6806811
57	0x40031949	2.0484183
58	0x40593437	3.393812
59	0x3fd24a71	1.6428968
60	0x3fcd96c2	1.6061633
61	0x3fb796e8	1.4342928
62	0x3ffe657b	1.9874719
63	0x4062d36f	3.544155
64	0x3fdf19c4	1.7429738
65	0x3fcdbb75	1.6072832
66	0x3fec657b	1.8468469
67	0x4019d257	2.4034631
68	0x407076a1	3.7572405
69	0x3fb20215	1.3906885
70	0x3fde6a46	1.7376182
71	0x3f8acd2b	1.0843862
72	0x4058c926	3.3872771
73	0x4056deb6	3.3573432
74	0x3f7ae018	0.9799819
75	0x3ea0ae7f	0.3138313
76	0x3ed5c547	0.41752073
77	0x3fb3e824	1.4055219
78	0x3e782869	0.24234165
79	0xbe51f058	-0.2050184
80	0x3e83d37b	0.25747284
81	0x3f0cb6fe	0.54966724
82	0x3f9d89c5	1.2307669
83	0x3e851a33	0.2599655
84	0xbea77dbf	-0.32713124
85	0x3ec67323	0.38759717
86	0x3f15c3dc	0.5850198
87	0x3f843385	1.0328223
88	0x3ed2e40e	0.41189617
89	0xbe84a0c1	-0.25903895
90	0x3e9624c5	0.29324928
91	0x3edb1867	0.42792055
92	0x3f618605	0.8809512
93	0x3eacca76	0.33748215
94	0xbe483021	-0.1954961
95	0x3eabc24f	0.33546683
96	0x3e6ab5b7	0.22920881
97	0x3fc97aff	1.574066
98	0x3f4a756b	0.79085416
99	0xbe173e7b	-0.14769928
100	0xbfa3e952	-1.2805579
101	0xbed7a8e2	-0.42121035
102	0x3eda535d	0.42641726
103	0x3e72bc71	0.23704697
104	0xbe88706e	-0.26648277
105	0xbf2ae066	-0.66748655
106	0x3c0af64b	0.008481572
107	0x3ea42d15	0.32065645
108	0x3ee6a211	0.45045522
109	0xbd9a4e9a	-0.07534523
110	0xbe06f9a4	-0.13181168
111	0xbe2a8e88	-0.16655934
112	0x3dac71c4	0.084201366
113	0x3ea0c62b	0.3140119
114	0x3e8476f4	0.25872004
115	0x3b05460e	0.0020335945
116	0xbe6f50e0	-0.23370695
117	0x3caa5a46	0.020794999
118	0x3f012762	0.5045072
119	0x3ef90bba	0.4864176
120	0xbe2be012	-0.16784695
121	0xbe8b998a	-0.27265579
122	0x3f652114	0.895036
123	0x3f9e23a1	1.2354623
124	0x3f34a8b0	0.70569897
125	0xbf076005	-0.5288089
126	0xbf8ccf43	-1.1000751
127	0xbebb8f7c	-0.36632907
128	0x3d839465	0.064247884
129	0xbe806912	-0.25080162
130	0xbea76d69	-0.3270066
131	0xbf44bfc9	-0.7685514
132	0xbea00b3c	-0.3125857
133	0x3d884945	0.066546
134	0xbd833173	-0.06405916
135	0xbd2613a8	-0.04054609
136	0xbf61a9b8	-0.88149595
137	0xbf42d94d	-0.76112825
138	0xbe123a0d	-0.14279957
139	0x3b8e2861	0.0043383096
140	0x3e9f2b42	0.3108769
141	0xbf7db268	-0.9910035
142	0xbef3eaf1	-0.47640184
143	0xbe283879	-0.16427793
144	0xbda0577f	-0.078291886
145	0x3f095303	0.5364229
146	0xbea84707	-0.3286669
147	0x3d3e3af3	0.046442937
148	0x3e3b4d8a	0.18291298
149	0xbd9e77a7	-0.077376656
150	0x3ed663cd	0.41873017
151	0xbec6ba0e	-0.38813823
152	0xbf5b6a17	-0.85708755
153	0x3e8c7e8f	0.27440307
154	0x3ea1fde6	0.31639022
155	0x3ebd4bbd	0.36971846
156	0xbed486a2	-0.41508967
157	0xbf662d50	-0.8991289
158	0x3f048c78	0.5177684
159	0x3e94e169	0.29078224
160	0x3e88681f	0.26641938
161	0xbe33a157	-0.17542015
162	0xbf8b59bd	-1.0886761
163	0x3e2e2469	0.17006077
164	0x3ea61d6a	0.32444316
165	0x3d14ae44	0.036299005
166	0x3e49c646	0.19704542
167	0xbf945d7b	-1.1591028
168	0x3ef98586	0.48734683
169	0x3f159be4	0.58440995
170	0x3e87c5d1	0.2651811
171	0xbe389beb	-0.18028228
172	0xbf97e197	-1.186572
173	0x3f0d7805	0.5526126
174	0x3ee8fba0	0.45504475
175	0x3f78da75	0.9720834
176	0x3ee5b436	0.44864053
177	0x3d12adcc	0.035810277
178	0x3e88c987	0.26716253
179	0x3f0dc9db	0.5538613
180	0x3f76d73c	0.9642217
181	0x3e17f492	0.1483939
182	0xbbee6bf4	-0.0072760526
183	0x3f18fadd	0.59757787
184	0x3f81992f	1.0124873
185	0x3f183af1	0.5946494
186	0x3d7f728b	0.062365096
187	0xbf64b855	-0.8934377
188	0x3e27e47a	0.1639575
189	0x3f5896f5	0.8460534
190	0x3eb8b834	0.36078036
191	0x3f672a9b	0.90299386
192	0xbf03f86f	-0.51550955
193	0x3f52b487	0.8230671
194	0x3f8053fe	1.0025632
195	0x3e6e7f84	0.23290831
196	0x3f92354a	1.1422513
197	0xbe480a26	-0.19535121
198	0x3f5072cc	0.81425166
199	0x3fb5ebef	1.4212626
200	0x3e574a0b	0.21024339
201	0x3eee6fd8	0.46569705
202	0x3c9825d7	0.018572731
203	0xbdbaf5b9	-0.09128899
204	0xbe1c2af2	-0.15250757
205	0x3e80b6fe	0.25139612
206	0xbe31f9d5	-0.1738046
207	0xbeae3cfd	-0.34030905
208	0xbdac5ddd	-0.084163405
209	0xbd100e6a	-0.035169996
210	0xbf15fb9b	-0.58587044
211	0xbeeb103f	-0.45910832
212	0xbfe0158d	-1.7506577
213	0xbf25a6d2	-0.6470767
214	0xbea78940	-0.327219
215	0xbe81043f	-0.25198552
216	0x3e37252c	0.17885274
217	0xbfa56798	-1.2922239
218	0xbedcf318	-0.43154216
219	0xbe0c13f4	-0.13679487
220	0xbe289373	-0.16462497
221	0x3cd2bcf8	0.025724873
222	0xbf5d2d38	-0.86397123
223	0xbf039228	-0.5139489
224	0x3e1fc0a5	0.15600832
225	0x404eb375	3.2297032
226	0x3f0b6994	0.54457974
227	0xbe16c706	-0.14724359
228	0xbe909fac	-0.2824682
229	0xc0523027	-3.284189
230	0x4045d556	3.091146
231	0x3eb5e31f	0.35524842
232	0xbe110c99	-0.14164962
233	0xbc828fec	-0.015937768
234	0xc0410575	-3.015958
235	0x4022ed58	2.5457363
236	0x3e00ee01	0.12590791
237	0xbed66640	-0.41874886
238	0x3d265e73	0.040617418
239	0xc040c781	-3.0121768
240	0x4017f40b	2.3742702
241	0x3e00b7f8	0.12570179
242	0xbedadc9c	-0.42746437
243	0xbe17d8a8	-0.14828742
244	0xc0420b2d	-3.031932
245	0x402853ab	2.6301067
246	0x3e897640	0.2684803
247	0xbeed2188	-0.46314645
248	0x3d0ca759	0.034339283
249	0xc04674bf	-3.1008756
250	0x400584d7	2.086233
251	0x3f4432c4	0.7663996
252	0x3d9094db	0.07059642
253	0xbf6900db	-0.9101693
254	0xbfaf4ea6	-1.3695877
255	0x40218332	2.5236325

firstConvLayer.norm.weight f4 [32]
0	0x3f224035	0.6337922
1	0x3fccb19d	1.5991703
2	0x3f9ed1dc	1.2407794
3	0x3ec16fb2	0.3778053
4	0x3f29b34b	0.66289204
5	0x3fd5c74f	1.6701449
6	0x3f868e4b	1.0512174
7	0x3f2ad3c1	0.6672936
8	0x3f9beaae	1.2180994
9	0x401d46d5	2.4574482
10	0x3fb485a8	1.4103289
11	0x3f210fee	0.6291493
12	0x3f5e5eef	0.8686361
13	0x3f1e93c3	0.61944216
14	0x3f8368ae	1.0266321
15	0x3f2a6e36	0.6657442
16	0x3f21d1aa	0.63210547
17	0x3f28fc31	0.66009814
18	0x3f833911	1.025179
19	0x3fd59636	1.6686466
20	0x3f23f58b	0.64046544
21	0x3f034e1c	0.5129106
22	0x3ef4fccc	0.4784912
23	0x3f8afdce	1.0858705
24	0x3ef53d1a	0.4789818
25	0x3f1cd7cb	0.61266774
26	0x3f9918dc	1.1960711
27	0x3f68de84	0.9096453
28	0x3f0d2ac5	0.55143386
29	0x3f85c70a	1.0451367
30	0x3f801529	1.0006458
31	0x3da07c5a	0.07836218

firstConvLayer.norm.bias f4 [32]
0	0xbe5ae8a0	-0.21377802
1	0x3ed3fe5b	0.41404995
2	0xbf330540	-0.69929886
3	0xbe4d2711	-0.20034434
4	0xbf1fde37	-0.6244845
5	0xbe5008cf	-0.2031586
6	0xbd962b39	-0.07332463
7	0xbd9d7742	-0.07688762
8	0x3daad149	0.08340699
9	0x3ee7945f	0.45230386
10	0xbf5d8d22	-0.86543477
11	0x3dbdce2d	0.092678405
12	0xbed44bba	-0.41464025
13	0x3e57c482	0.21071056
14	0xbf0ea41a	-0.5571915
15	0xbd914ebf	-0.07095098
16	0xbe2e31d0	-0.1701119
17	0xbe21cb09	-0.15800108
18	0xbf277e34	-0.65426946
19	0x3e8ca426	0.27468985
20	0xbf0c1614	-0.5472119
21	0xbf31673e	-0.6929816
22	0x3e0ba300	0.13636398
23	0xbe6187a1	-0.22024395
24	0xbeed18a6	-0.46307868
25	0xbee3bb69	-0.4447892
26	0x3da2f676	0.07957165
27	0xbdbf2bc6	-0.09334521
28	0xbeb8ffc9	-0.3613265
29	0x3e23c644	0.15993601
30	0xbe062edf	-0.13103817
31	0xbf292da6	-0.6608528

resmoduleA.conv1.weight f4 [32, 32, 5, 5]
0	0xbf90e133	-1.1318725
1	0x3c8d1194	0.017220296
2	0xbe034026	-0.1281744
3	0xbd910976	-0.07081883
4	0xbfa765cd	-1.3077942
5	0xbf952042	-1.1650469
6	0xbe836e0e	-0.25669903
7	0xbf13589e	-0.57557094
8	0x3e466d6a	0.19377676
9	0xbfc66b5b	-1.5501512
10	0xbf3f555a	-0.7473961
11	0xbe0c5fe7	-0.13708459
12	0xbf170686	-0.5899433
13	0x3e1891d3	0.14899378
14	0xbfaf48be	-1.3694074
15	0xbe5f2c29	-0.2179419
16	0x3e3c4191	0.18384387
17	0xbeee5381	-0.46548083
18	0x3cf282ca	0.02960338
19	0xbf7992f1	-0.9748984
20	0x3ef1f8f3	0.47260246
21	0x3eb3885a	0.35064965
22	0xbd87e2be	-0.066350445
23	0xbea2fef3	-0.31835136
24	0xbf3790b0	-0.7170515
25	0xbf5c35f2	-0.86019814
26	0x3f1a6fac	0.6032665
27	0x3f4d0837	0.8009066
28	0x3ec0cde9	0.37657097
29	0x3fc51047	1.5395592
30	0xbf00973e	-0.5023078
31	0x3efb1ce5	0.49045482
32	0x3f378370	0.7168493
33	0x3eef578b	0.46746477
34	0x3ff92b5c	1.9466357
35	0xbeffa770	-0.49932432
36	0xbd25e1fa	-0.04049871
37	0x3f4ae847	0.7926068
38	0x3f2617a7	0.6487984
39	0x3fe3c373	1.7794021
40	0xbe9e1e21	-0.30882362
41	0x3e95cd0f	0.2925801
42	0x3f1cb743	0.61217135
43	0x3ee3c47e	0.4448585
44	0x3fb94877	1.447524
45	0xbe543d02	-0.20726398
46	0x3f0f20f1	0.5590964
47	0x3e9afb70	0.30269957
48	0x3ddec2fe	0.108770356
49	0x3f3a9a0c	0.72891307
50	0x3ea49d7f	0.3215141
51	0x3d4d9cca	0.050198354
52	0x3f76cfb0	0.96410656
53	0x3fc2ee45	1.5228964
54	0x3e308523	0.17238288
55	0x3e8c6ddb	0.27427563
56	0x3ea3f543	0.32023057
57	0x3f2604b1	0.6485091
58	0x3fc65293	1.549395
59	0xbcbe7d13	-0.023253
60	0x3f454a3b	0.7706639
61	0x3f7434a4	0.95392823
62	0x3f3f6cdc	0.7477548
63	0x3f5ba59d	0.8579958
64	0xbebd4ec3	-0.36974153
65	0x3fccb3e5	1.59924
66	0x3f5a81aa	0.853541
67	0x3f37c528	0.7178521
68	0x3da0dffd	0.078552224
69	0xbf128c6c	-0.57245517
70	0x3fdd2145	1.7275778
71	0x3f661d61	0.8988858
72	0x3f2eb49b	0.6824433
73	0xbe889cb9	-0.2668207
74	0xbf554dec	-0.83322024
75	0x3e24ddc6	0.16100225
76	0xbe3fb8c9	-0.18722834
77	0x3f10169d	0.56284505
78	0x3ea8de05	0.32981887
79	0x3f0e8e1d	0.556856
80	0x3f3f1635	0.7464326
81	0xbe75f587	-0.24019442
82	0x3ed992ba	0.42494756
83	0x3ef19000	0.47180176
84	0x3f06e3fa	0.52691615
85	0x3f6cc103	0.9248201
86	0x3ccc9b72	0.024976466
87	0x3f248471	0.6426459
88	0x3ec5eaca	0.38655692
89	0x3ea26953	0.3172098
90	0x3f623b7c	0.88372016
91	0x3ea2da76	0.31807297
92	0x3ee1d408	0.4410708
93	0x3ea1d8c4	0.31610692
94	0x3da0274d	0.07819996
95	0x3f403831	0.7508574
96	0x3edf3670	0.4359622
97	0x3f1cab33	0.6119873
98	0x3db93736	0.09043734
99	0xbad78f8f	-0.0016445982
100	0xbedcbf30	-0.43114614
101	0x3f0d3d95	0.5517209
102	0x3d72f58d	0.059316207
103	0x3efa1472	0.48843724
104	0xbe941732	-0.28923947
105	0xbd94215a	-0.07232924
106	0x3d22b542	0.039723642
107	0x3dd14092	0.10217394
108	0x3ecf0e77	0.40440723
109	0xbe0abb5f	-0.13548039
110	0xbe1873af	-0.1488788
111	0x3e2dd991	0.16977526
112	0x3e5a49a5	0.21317156
113	0x3dfe3dd6	0.12414138
114	0x3e8b7343	0.27236375
115	0xbcbfd93f	-0.02341902
116	0x3f128a57	0.5724234
117	0x3e56fd0e	0.2099497
118	0xbef2d91d	-0.4743127
119	0x3e9f9ed1	0.31175855
120	0x3e14b719	0.14522971
121	0x3e66811a	0.22510186
122	0x3ec31134	0.38099062
123	0xbe590fcc	-0.21197432
124	0xbe443354	-0.19160205
125	0xbfa9d3d6	-1.3267772
126	0xbf177fb5	-0.5917924
127	0x3cf6c74c	0.030124329
128	0xbe37766d	-0.1791627
129	0x3ede4f0a	0.43419677
130	0xbf29ed88	-0.6637807
131	0xbf510682	-0.81650555
132	0xbf85ca3c	-1.0452342
133	0xbf4eca0a	-0.8077704
134	0x3dbb6ab4	0.091512114
135	0xbee37aa8	-0.44429517
136	0x3ebc3752	0.36760956
137	0x3da33df2	0.079707995
138	0x3ddaef5e	0.10690187
139	0xbfac801a	-1.3476593
140	0xbc28f704	-0.010312799
141	0x3f0a8760	0.54112816
142	0xbd05d591	-0.032674376
143	0x3e9c2ece	0.3050446
144	0xbf6f8398	-0.9356017
145	0x3f028a61	0.509924
146	0xbd93c17c	-0.072146386
147	0xbeba445a	-0.36380273
148	0xbeebe393	-0.46072063
149	0xc019c7ae	-2.4028125
150	0xbd94379d	-0.0723717
151	0xbe3c28b6	-0.18374905
152	0xbeddcf5e	-0.4332227
153	0xbf06f20c	-0.52713084
154	0xbe7a0d59	-0.24419154
155	0xbee6966b	-0.45036635
156	0xbe8ffe16	-0.2812354
157	0xbf097219	-0.53689724
158	0xbf1fd1fc	-0.62429786
159	0x3ee904c3	0.45511445
160	0xbe1ac9e1	-0.15116073
161	0xbdd7c1d5	-0.105350174
162	0xbe9ac2ff	-0.30226895
163	0xbef61293	-0.48061046
164	0x3efdb409	0.49551418
165	0x3f2d2bd7	0.6764502
166	0x3ec67c16	0.38766545
167	0x3da87abc	0.08226535
168	0xbe37aefd	-0.17937846
169	0xbe169f08	-0.14709103
170	0x3fa77796	1.308337
171	0x3f3ccc15	0.73748904
172	0x3ee21cf2	0.4416271
173	0x3d2e3371	0.042529527
174	0xbf749d3f	-0.9555244
175	0xbf47a2cf	-0.779828
176	0xbe0987ee	-0.1343076
177	0xbe0b6551	-0.13612868
178	0xbf36a231	-0.71341234
179	0x3e3d81db	0.18506567
180	0xbf510b5d	-0.81657964
181	0xbdd6e16c	-0.104922146
182	0x3c08f651	0.008359508
183	0xbebe18c9	-0.37128285
184	0xbdf71906	-0.1206532
185	0xbf46d469	-0.7766786
186	0xbe218456	-0.15773138
187	0x3e0bfee6	0.13671455
188	0xbd507f00	-0.050902367
189	0xbf10fd63	-0.5663664
190	0xbf166373	-0.587455
191	0xbe80f4b1	-0.25186685
192	0x3c9e63b9	0.01933466
193	0xbebd71d3	-0.37000903
194	0xbf4a1ff1	-0.7895499
195	0xbf0f5513	-0.5598919
196	0xbf0b0da8	-0.5431771
197	0xbeaac6d3	-0.33354816
198	0xbf7a90cc	-0.9787719
199	0xbf8b180a	-1.0866711
200	0x3eea48a8	0.45758557
201	0x3f844da7	1.0336198
202	0xbde731bd	-0.11288784
203	0xbfe7b80c	-1.8103042
204	0x3f31b5ef	0.69418234
205	0x3eef5b3b	0.4674929
206	0x3f65db39	0.8978763
207	0x3e80e30c	0.25173223
208	0xbfd54307	-1.666108
209	0x3cc5c7ea	0.024143178
210	0x3e2e4628	0.1701895
211	0x3f5e1a6f	0.86759084
212	0x3f2f7bdb	0.68548363
213	0xbfaf5c82	-1.3700106
214	0xbdfbcd4f	-0.12295019
215	0x3d0ee5bc	0.03488706
216	0x3fab489f	1.3381537
217	0x3e98b61d	0.2982644
218	0xbfae5753	-1.3620399
219	0xbe518a57	-0.20462929
220	0xbec6b6ef	-0.38811442
221	0x3fc8984e	1.567148
222	0xbe971c1b	-0.2951363
223	0xbfd4b69a	-1.6618226
224	0x3f01c1ca	0.50686324
225	0x3f6898ec	0.9085834
226	0x3ea43d4d	0.3207802
227	0x3ff96f7b	1.9487146
228	0x40095753	2.1459548
229	0x3ece07ea	0.40240413
230	0x3f439e81	0.7641373
231	0x3ebac657	0.36479446
232	0x3fca4a9b	1.5804018
233	0x4013b4cb	2.3079097
234	0x3f6042d5	0.8760198
235	0x3f817415	1.011355
236	0x3edeab8d	0.43490258
237	0x3f807f67	1.003888
238	0x401fefe1	2.499016
239	0x3fb2b104	1.3960271
240	0x3f92f66b	1.1481451
241	0xbd564994	-0.052316263
242	0x3eb5771b	0.35442433
243	0x400bde66	2.1854491
244	0x3faa8408	1.3321543
245	0x3f64fff0	0.8945303
246	0xbeb4b98c	-0.3529781
247	0x3dd8530e	0.105627164
248	0x3feb8832	1.8400939
249	0x3f509409	0.81475884
250	0xbe4fc5d3	-0.20290308
251	0x3fdbe91b	1.7180513
252	0x3e713cdb	0.23558371
253	0x3f31396d	0.6922825
254	0x3e38d10a	0.18048492
255	0x3e03ab08	0.12858212

resmoduleA.conv2.weight f4 [32, 32, 5, 1]
0	0xbe3a63cc	-0.18202132
1	0x3e0b5588	0.13606846
2	0x3f24bb8d	0.6434868
3	0x3dbc7eb2	0.09203853
4	0xbf823d85	-1.0175024
5	0x3ed7166b	0.4200929
6	0x3f23976e	0.6390294
7	0xbe819bbe	-0.25314134
8	0x3e700dfc	0.23442835
9	0xbfe7ff1a	-1.8124726
10	0xbe975657	-0.2955806
11	0x3f2cee66	0.6755127
12	0x3f0e0a31	0.554843
13	0xbe1c0bd9	-0.15238895
14	0x3d8911df	0.06692862
15	0x3fb97fd4	1.4492135
16	0x3c30f8b7	0.010801486
17	0x3ec5144e	0.38492054
18	0x3f8c2ac8	1.0950556
19	0x3f954646	1.1662071
20	0x3f763b28	0.96184015
21	0xbd5acf35	-0.053420264
22	0x3e3e6a23	0.18595175
23	0xbfcd2783	-1.6027683
24	0xc02205c3	-2.5316017
25	0xbf93719e	-1.1519048
26	0xbf0bce94	-0.5461209
27	0xbea9e785	-0.33184448
28	0x3e5c0e14	0.21489745
29	0x3fd43241	1.6577836
30	0x3fa781bf	1.308647
31	0xbe6a1911	-0.22861125
32	0x3f72e55c	0.94881225
33	0x402f7ced	2.7419999
34	0x40131a84	2.2984934
35	0xbf316d56	-0.6930746
36	0xbf604db6	-0.8761858
37	0xbec1b1bd	-0.37830916
38	0xbf06fb66	-0.52727354
39	0xbf8518da	-1.0398209
40	0x3f210d35	0.6291078
41	0x3f04d8ed	0.518935
42	0x3ecd21bf	0.4006481
43	0x3e9b0331	0.30275872
44	0xbeb9a936	-0.3626191
45	0x3f5fc2c6	0.87406576
46	0x3f16016f	0.5859594
47	0x3f3731a5	0.71560127
48	0x3e9a162b	0.30095038
49	0x3c4e1c9c	0.012580063
50	0x3ef339a7	0.47504923
51	0x3dd3f7a4	0.10349968
52	0x3ecf645a	0.4050625
53	0x3debf220	0.11520791
54	0x3f2194b9	0.6311756
55	0x3d6a0840	0.057136774
56	0x3d783f4c	0.06060724
57	0x3f59d0b4	0.8508408
58	0x3f1ba653	0.60800666
59	0xbeb07a6a	-0.34468395
60	0xbf2a7d58	-0.6659751
61	0xbe257a8e	-0.16160032
62	0x3e0a5802	0.13510135
63	0xbe73d38b	-0.23811166
64	0xbf6822e7	-0.90678257
65	0x3e958b33	0.29207763
66	0x3cf04165	0.029328058
67	0x3f82a055	1.020518
68	0x3f529a20	0.82266426
69	0x3f57ae04	0.842499
70	0x3ec0df95	0.3767058
71	0x3d04d7e8	0.032432467
72	0xbeaddf27	-0.33959314
73	0x3e73a843	0.23794656
74	0xbf51a1b8	-0.8188739
75	0x3e3bee65	0.18352659
76	0xbe7a44a1	-0.24440242
77	0x3f7b3510	0.9812784
78	0x3e4608e4	0.19339329
79	0x3f4d570d	0.80210954
80	0xbf72f02a	-0.9489771
81	0x3daa2d9d	0.08309481
82	0xbe498f13	-0.19683485
83	0xbf4d1e85	-0.80124694
84	0xbeca4a70	-0.39509916
85	0x3e8841f8	0.2661283
86	0x3e97ddfd	0.2966155
87	0xbf941e79	-1.15718
88	0xbfd284bf	-1.6446761
89	0xbfb659de	-1.4246175
90	0xbd92fe9e	-0.071774706
91	0xbf3090d8	-0.68971014
92	0x3f446d34	0.7672913
93	0x3e69b39b	0.2282242
94	0xbeffb24f	-0.49940726
95	0xbfadfe24	-1.3593183
96	0xbfd21898	-1.6413755
97	0xbfb8da3c	-1.44416
98	0xbecf0498	-0.40433192
99	0x3ed8df95	0.4235808
100	0x3ea3dd9b	0.3200501
101	0x3d0e85c3	0.034795534
102	0x3f8008a3	1.0002636
103	0x3f4ac758	0.79210424
104	0x3f8ad981	1.0847627
105	0x3efbb8ed	0.49164525
106	0xbe787a43	-0.24265389
107	0x3dd4256e	0.10358702
108	0x3ea23bee	0.31686348
109	0x3f215e3e	0.6303443
110	0xc0154f4f	-2.3329656
111	0xbf81d01d	-1.0141636
112	0xbf7f5f8e	-0.9975518
113	0xbf38ff21	-0.72264296
114	0xbff6dff3	-1.9287094
115	0xbaa48418	-0.0012551574
116	0x3f563577	0.8367533
117	0xbf68ead4	-0.9098332
118	0xc00bb047	-2.182634
119	0xc04423b1	-3.0646784
120	0x3f537d9c	0.8261354
121	0x3e8cc31d	0.2749261
122	0x3f0e0df4	0.5549004
123	0xbdeea537	-0.11652606
124	0xbefeb4b6	-0.49747247
125	0xbf768cec	-0.9630878
126	0xbf483c2b	-0.7821681
127	0xbf817226	-1.011296
128	0xbf2f9f15	-0.68602115
129	0xbfd8de1c	-1.6942782
130	0xbd7bb3d7	-0.061450806
131	0xbdad82e5	-0.08472232
132	0x3e9c1352	0.3048349
133	0x3ea6387b	0.32464966
134	0x3dcd5730	0.10026395
135	0xbf1e7ea3	-0.6191198
136	0xbf236507	-0.6382603
137	0xbe9f3f0a	-0.31102782
138	0xbd7eabb9	-0.062175486
139	0xbf1455fa	-0.5794369
140	0xbe89e42a	-0.26931888
141	0xbf42274e	-0.75841224
142	0xbfbed401	-1.4908448
143	0xc0012a7f	-2.0182188
144	0xbfccdb99	-1.6004516
145	0x3db39d54	0.08770242
146	0xbf4f2725	-0.80919105
147	0xbebe19c2	-0.37129027
148	0xbefbdb32	-0.4919067
149	0xbf669797	-0.9007506
150	0x3fa23ae9	1.2674228
151	0xbf0f9297	-0.56083053
152	0xbeff6027	-0.49878046
153	0xbf3f556d	-0.74739724
154	0x3e53d55d	0.2068686
155	0x3d865dc2	0.06560852
156	0x3efa78ae	0.48920196
157	0x3f87b97c	1.060348
158	0x3fb20426	1.3907516
159	0x3f509b2e	0.81486785
160	0xbfc1d79a	-1.5143921
161	0xbf448a2f	-0.7677335
162	0x3e42a85b	0.19009535
163	0xbf551d53	-0.8324787
164	0xbff5fc2b	-1.921758
165	0xbcef3128	-0.029198244
166	0xc01ab78e	-2.4174533
167	0x3fc6d7a3	1.5534557
168	0x3f412e75	0.7546151
169	0xbd5b29db	-0.053506713
170	0xbf53711c	-0.82594466
171	0x3e153ff8	0.14575183
172	0xbeb1aa57	-0.3470027
173	0xbe0f2a4a	-0.13980976
174	0xbf1b82da	-0.6074654
175	0x3e70f4e0	0.23530912
176	0x3f2fab7d	0.68621045
177	0x3f0ea071	0.55713564
178	0x3f0f90ac	0.56080127
179	0x3d8b2fc1	0.06796218
180	0xbedd0f86	-0.43175906
181	0xbe784dc8	-0.24248421
182	0xbe67beaf	-0.22631334
183	0x3e388105	0.18017967
184	0x3f97a933	1.184851
185	0xc00bd795	-2.185033
186	0xbf693991	-0.91103464
187	0x3f8f1b49	1.1180202
188	0x3fcd02b2	1.6016448
189	0x3f1fcba7	0.62420124
190	0xbede252a	-0.4338773
191	0xbf321c03	-0.6957399
192	0xbf505bc2	-0.8139001
193	0xbfd38924	-1.6526227
194	0xbfee682f	-1.8625544
195	0xbe9d25ea	-0.3069299
196	0x3d1372c1	0.03599811
197	0x3dfc8b25	0.12331227
198	0x3d880c58	0.066429794
199	0xbcdd14e7	-0.026987506
200	0xbffaff87	-1.9609231
201	0xbfb0b57f	-1.3805388
202	0xbeebb92e	-0.46039718
203	0xbfb9c592	-1.4513419
204	0xbf553e1f	-0.83297914
205	0xbc70d0f5	-0.014698257
206	0x3e216fe0	0.15765333
207	0x3f4cf95b	0.80067986
208	0x3f773d77	0.9657816
209	0x3f28eaad	0.65983087
210	0x40098d70	2.1492577
211	0x3ff5adfd	1.9193722
212	0x3ec769be	0.38947862
213	0x3f105a30	0.56387615
214	0x3f329ca0	0.6977024
215	0xbef7bb4b	-0.4838508
216	0xbf310983	-0.6915514
217	0xbc910344	-0.017701752
218	0xbe1fa8c6	-0.15591726
219	0xbf9dd2de	-1.2329977
220	0x3d976b77	0.07393544
221	0x3f31206f	0.69190115
222	0x3e70170a	0.23446289
223	0xbcc99149	-0.02460541
224	0xbe8faa7c	-0.28059757
225	0xbf81f645	-1.015328
226	0xbf31959d	-0.69368917
227	0x3f04c7b7	0.5186724
228	0x3dced8b1	0.10099924
229	0xbf6422fb	-0.89115876
230	0x3ecdaba0	0.40170002
231	0x3f37268f	0.7154321
232	0x3e955f4f	0.29174277
233	0x3eae29f8	0.34016395
234	0x3f007228	0.5017419
235	0x4015d220	2.34095
236	0x3f86d70c	1.0534377
237	0x3ffb1d52	1.9618323
238	0xbf1aecd1	-0.60517603
239	0xbfce1d4a	-1.6102688
240	0x3f23b11e	0.63942134
241	0xbf8b2241	-1.0869828
242	0x3d93cdf5	0.072170176
243	0xbf832013	-1.0244163
244	0x3f8d775e	1.1052053
245	0xbf1d69b5	-0.6148942
246	0x3dee7c31	0.116447814
247	0xbfde0011	-1.734377
248	0x3e559a8f	0.2085974
249	0x3f6fec2d	0.9371975
250	0xbf7977ee	-0.97448623
251	0xbfda2496	-1.7042415
252	0xbf724ff6	-0.9465326
253	0xbf03f5a6	-0.51546705
254	0xbcb8bebe	-0.02255189
255	0xbeb69fd0	-0.35668802

resmoduleA.norm1.weight f4 [32]
0	0x3fcf1d49	1.6180812
1	0x40131dc7	2.2986925
2	0x3fb24020	1.3925819
3	0x3f95e9c0	1.171196
4	0x3fd89605	1.6920782
5	0x401e4012	2.4726605
6	0x3fd6fceb	1.6795934
7	0x3fa30dd4	1.2738595
8	0x3f9d9961	1.2312433
9	0x3fbd2f1d	1.4780003
10	0x3f70a7f2	0.94006264
11	0x3fb6f035	1.4292055
12	0x3fd436b6	1.6579196
13	0x3fc68ad2	1.5511115
14	0x3fb76512	1.4327719
15	0x3ffbbfe9	1.9667941
16	0x400ccf5d	2.2001565
17	0x4026a874	2.6040316
18	0x3fc0a3f8	1.5050039
19	0x3fc7a68e	1.5597703
20	0x3fc97efb	1.5741876
21	0x3fc47c2a	1.5350392
22	0x3fc3f4cb	1.530908
23	0x3f8d34fa	1.1031792
24	0x3f9e850c	1.2384353
25	0x3fba6854	1.4563088
26	0x3fdf9124	1.7466168
27	0x3fab878d	1.3400742
28	0x3fbb6261	1.4639398
29	0x3fb45100	1.4087219
30	0x3fd7c265	1.68562
31	0x3fbba86d	1.4660774

resmoduleA.norm1.bias f4 [32]
0	0xbf96d89b	-1.1784853
1	0xbf897511	-1.0738851
2	0x3ebc4cd8	0.36777377
3	0xbfa18c63	-1.2620968
4	0x3cd56587	0.026049389
5	0xbf40cb42	-0.75310147
6	0xbf0b9475	-0.545234
7	0xbf9c3856	-1.2204692
8	0xbf1c2dbd	-0.6100729
9	0xbf390984	-0.72280145
10	0x3d3e033d	0.046389807
11	0xbf33eafb	-0.70280427
12	0xbf87a81b	-1.0598177
13	0xbf92c74f	-1.1467074
14	0xbf3f8eb3	-0.74827117
15	0xbf5ea6df	-0.86973375
16	0xbfa2e205	-1.2725226
17	0xbf7fbba4	-0.9989569
18	0xbf4d63b5	-0.80230266
19	0xbf5bd423	-0.8587057
20	0xbf3b34c0	-0.73127365
21	0xbd0927c0	-0.033485174
22	0x3d5799ea	0.05263702
23	0xbd2d2634	-0.04227276
24	0xbe75bf49	-0.23998751
25	0xbf27a526	-0.6548637
26	0x3e539e9f	0.20665978
27	0xbd710f43	-0.058852445
28	0xbf6575c3	-0.89632815
29	0xbeba94b0	-0.36441565
30	0xbf80797d	-1.0037075
31	0xbf750280	-0.9570694

resmoduleA.norm2.weight f4 [32]
0	0x3f9afdfa	1.2108757
1	0x3f83d1f3	1.0298446
2	0x3fbbd823	1.4675335
3	0x400df376	2.2179847
4	0x3ff8b4aa	1.9430134
5	0x3fd34e3c	1.650825
6	0x3fa35ad3	1.2762092
7	0x3f657e2f	0.89645666
8	0x3f7cae2b	0.9870326
9	0x3f87e40d	1.061647
10	0x3f9f4d81	1.2445527
11	0x3f9ed191	1.2407705
12	0x3fce561b	1.6120027
13	0x3fcb4c6a	1.5882695
14	0x3f983baf	1.1893214
15	0x3fd84c26	1.6898239
16	0x3f831427	1.0240525
17	0x3f49f44b	0.78888386
18	0x3fd34e30	1.6508236
19	0x3fffc898	1.9983091
20	0x3f812fb7	1.0092686
21	0x3fe94c4f	1.8226413
22	0x3f0c1c95	0.5473111
23	0x3f6cca72	0.9249641
24	0x400785b5	2.1175358
25	0x3fbd8b2f	1.48081
26	0x3fa77664	1.3083005
27	0x3f97559a	1.1822999
28	0x3fd4de1e	1.6630285
29	0x3f60a8ef	0.8775777
30	0x3fb8c3b1	1.443472
31	0x3f83de3b	1.0302194

resmoduleA.norm2.bias f4 [32]
0	0xbf24132c	-0.64091754
1	0xbf0d6cab	-0.5524394
2	0x3dfb138a	0.12259586
3	0xbf884f18	-1.0649137
4	0xbf98b609	-1.1930553
5	0xbf8f21b9	-1.1182166
6	0x3d30fc99	0.043209646
7	0xbed6d7e5	-0.4196159
8	0xbe0e3be3	-0.13890032
9	0xbf709ddb	-0.9399087
10	0xbf96cab9	-1.1780616
11	0xbf023d83	-0.5087511
12	0xbf4c94ea	-0.79914725
13	0xbf1e3935	-0.6180604
14	0xbf49844c	-0.78717494
15	0x3ed13966	0.40864104
16	0xbec40e94	-0.38292372
17	0xbeafe098	-0.3435104
18	0xbf1c160f	-0.6097116
19	0xbf96d8ac	-1.1784873
20	0xbf131fc8	-0.5747037
21	0xbef8f252	-0.48622376
22	0xbec0db39	-0.37667254
23	0xbe7c9732	-0.24667051
24	0xbf5e170d	-0.8675392
25	0xbf8abecb	-1.0839475
26	0xbfd41cb3	-1.6571258
27	0xbf68eb5d	-0.90984136
28	0xbfa45dde	-1.2841146
29	0xbf174c51	-0.59100825
30	0xbfa57034	-1.2924867
31	0xbfd61e80	-1.6728058

resmoduleB1.conv1.weight f4 [32, 32, 3, 3]
0	0x3ebae5be	0.36503404
1	0xbd745b6a	-0.05965749
2	0xc037e79e	-2.8735118
3	0x3e76de90	0.24108338
4	0xbf10acac	-0.56513476
5	0xc0243ba2	-2.5661397
6	0x3cb4004b	0.021972796
7	0xbf172c42	-0.5905191
8	0xbff865d4	-1.9406075
9	0xbf0fc46b	-0.56159085
10	0x3fa4a4e2	1.2862818
11	0xbe0fc0f2	-0.14038447
12	0xbf74a32f	-0.955615
13	0x3f979cf0	1.1844769
14	0xbe3045d9	-0.17214145
15	0xbf8e0fa9	-1.1098529
16	0x3f93ca64	1.154614
17	0x3eb15bf5	0.3464047
18	0xc0074a36	-2.1139045
19	0xbfea59fa	-1.8308709
20	0xbe2d500e	-0.1692507
21	0xbf9bd11e	-1.2173193
22	0xbf881973	-1.0632766
23	0xba960f98	-0.0011448739
24	0xbee51b12	-0.44747216
25	0xbea6dcb0	-0.32590246
26	0x3f24303d	0.64136106
27	0xbeac71d9	-0.3368061
28	0x3f80b078	1.0053854
29	0xbf56b2ba	-0.83866465
30	0x3e42dfa6	0.19030628
31	0x3fe198dd	1.7624775
32	0xbf4c58dd	-0.79823095
33	0x3f10c745	0.5655406
34	0x3f968fb3	1.1762604
35	0xbed26e69	-0.4109986
36	0xbeecde87	-0.46263525
37	0xbfa790b3	-1.3091034
38	0xbed3d3b5	-0.41372457
39	0x3f0194da	0.50617754
40	0xbede7d0e	-0.43454784
41	0xbdc114da	-0.09427805
42	0x3db75ba8	0.08953029
43	0xbf14edd5	-0.581754
44	0x3e8d0c24	0.27548325
45	0xbdb2f398	-0.08737868
46	0xbfdc50cf	-1.7212161
47	0x3ebb92fe	0.36635584
48	0xbf17f350	-0.5935564
49	0xbf8fb46e	-1.1226938
50	0x3fa43012	1.282717
51	0xbe6cd191	-0.23126818
52	0xc027cf25	-2.622018
53	0x3e31e3a6	0.17371997
54	0x3f7f59e4	0.9974654
55	0x3ecdd68e	0.40202755
56	0xbfb943d6	-1.4473827
57	0x3fd9ca4f	1.7014865
58	0x3f816ea7	1.0111893
59	0xbfa774cf	-1.3082522
60	0x3fc4e02a	1.538091
61	0x3f5c5032	0.8605987
62	0xbf9b0fab	-1.2114156
63	0x3dcccbb3	0.0999979
64	0xbe833ea3	-0.25633726
65	0xbedafc75	-0.42770734
66	0x3ef76ae0	0.48323727
67	0xbe7dc500	-0.24782181
68	0xbe91e2c2	-0.28493315
69	0xbc955ea5	-0.018233607
70	0xbf989462	-1.1920283
71	0xbf29ae2d	-0.66281396
72	0xbf39b9b0	-0.7254896
73	0xbfe4ed92	-1.7885001
74	0x3edfd1af	0.43714663
75	0x3f3e417a	0.7431866
76	0xbf00b2ba	-0.50272715
77	0x3f90e211	1.131899
78	0x3ee1e216	0.44117802
79	0xbf4bdf00	-0.79637146
80	0x3f084c9e	0.5324191
81	0x3e8e43a3	0.27785978
82	0x3ea6b45e	0.32559484
83	0x3e481860	0.19540548
84	0x3ef5b006	0.47985858
85	0xbba1b9ee	-0.0049354946
86	0x3f425dc3	0.7592432
87	0x3e1d3c58	0.1535505
88	0xbdf5d021	-0.12002588
89	0x3f499c28	0.787539
90	0xbd2a26a3	-0.041540753
91	0x3e70d98c	0.23520488
92	0xbffc3238	-1.9702826
93	0xbc6da3f2	-0.01450442
94	0x3ea63d51	0.32468656
95	0xbf778e72	-0.9670173
96	0xbdeced2d	-0.11568675
97	0x3f0c6834	0.548465
98	0xbf5fc025	-0.87402564
99	0x3fc3e38d	1.5303818
100	0x3f74a0fe	0.95558155
101	0xbefa6c3b	-0.48910698
102	0x3f55f71b	0.8358018
103	0x3fae995a	1.3640549
104	0xbf10683f	-0.56409067
105	0x3f0b3b98	0.5438781
106	0x3f8ca368	1.0987368
107	0xbf51e1d4	-0.8198521
108	0x3f52d6ab	0.8235881
109	0xbecba820	-0.39776707
110	0xbd0233b7	-0.0317876
111	0x3f8c2aec	1.0950599
112	0xbe2f5d2b	-0.17125385
113	0x3f283ffb	0.65722626
114	0x3ea34a7f	0.31892774
115	0x3be38482	0.0069432864
116	0x3e40454a	0.18776432
117	0x3deffb58	0.11717862
118	0xbf29a760	-0.6627102
119	0xbfa76b0f	-1.3079547
120	0x3fcd70b6	1.6050022
121	0xbe0c1644	-0.13680369
122	0xbf203593	-0.6258175
123	0x3feeabd1	1.8646184
124	0xbf12251b	-0.5708787
125	0xbeaef3f5	-0.341705
126	0x3e6ee391	0.23328997
127	0xbff11a43	-1.883614
128	0x3ec62f1f	0.38707826
129	0x3f2e1b9a	0.68010867
130	0xbf5574d8	-0.83381414
131	0x3e33dac8	0.17563927
132	0x3f0c10f9	0.547134
133	0x3dc67596	0.096903965
134	0x3f2b7227	0.6697106
135	0x3e8438ba	0.2582453
136	0xbe84dedc	-0.25951278
137	0xbbddc94f	-0.0067683826
138	0x3e8670e1	0.26257995
139	0xbd696c7e	-0.05698823
140	0x3f1f1678	0.6214366
141	0xbef8ab2a	-0.48568088
142	0xbf043f8d	-0.5165947
143	0x3d4703f0	0.04858774
144	0xbf2f0a26	-0.6837486
145	0xbfe558c7	-1.7917718
146	0xbec18cdf	-0.3780279
147	0x3efb233f	0.49050328
148	0xbf10dad8	-0.5658393
149	0xbeae5496	-0.3404891
150	0x3f82c8c4	1.0217519
151	0xbe8943e2	-0.26809603
152	0xbf0cbccd	-0.5497559
153	0xbefbc921	-0.49176887
154	0xbf32e634	-0.6988251
155	0x3f0c80fb	0.5488431
156	0xbe684d10	-0.22685647
157	0xbf194a1f	-0.59878725
158	0x3f9a82c6	1.2071159
159	0xbdf949a2	-0.121722475
160	0xbe9fa5bc	-0.31181133
161	0x3fc0bfb0	1.5058498
162	0x3f31ca4f	0.69449323
163	0xbf54c590	-0.83113956
164	0xbf3f8637	-0.7481417
165	0x3f13450f	0.5752725
166	0x3f947d93	1.1600822
167	0xbe5cccd2	-0.21562508
168	0x3f82c1a2	1.0215342
169	0x3f66b4ed	0.9011982
170	0x3db03dde	0.0860555
171	0xbeaade01	-0.333725
172	0xbf7b630b	-0.98198
173	0x3e5aac28	0.21354735
174	0xbec912e5	-0.39272228
175	0x3eee1a96	0.46504658
176	0x3f23ffb1	0.6406203
177	0xbe97467b	-0.2954596
178	0xbeec7308	-0.46181512
179	0x3e8f99d0	0.28047037
180	0x3caf7bcd	0.021421338
181	0xbf5c217f	-0.8598861
182	0xbf85cb0c	-1.045259
183	0x3f12ce9a	0.573465
184	0xbfcd7880	-1.6052399
185	0xbfa01d20	-1.2508888
186	0x3f0b731b	0.5447251
187	0xc00411ed	-2.063594
188	0xbfbc1e78	-1.4696798
189	0xbf82142e	-1.0162408
190	0xc01483bc	-2.3205404
191	0xbfa15c1d	-1.2606236
192	0xbce9d482	-0.028543714
193	0xbfacc27d	-1.3496853
194	0xbf0e74d1	-0.55647
195	0x3e101a81	0.1407261
196	0xbfa34a10	-1.2756977
197	0xbe83d13e	-0.25745577
198	0xbfb8aadb	-1.4427141
199	0xbecd44c8	-0.40091538
200	0xbed8c5d0	-0.4233842
201	0xbfad2719	-1.3527557
202	0xbf3ec374	-0.7451699
203	0xbe05218a	-0.13001075
204	0xbfb590e0	-1.4184837
205	0xbf71e918	-0.944963
206	0xbd5f0365	-0.054446597
207	0x3ec4cc15	0.38436952
208	0x3f7e84ae	0.99421203
209	0x3b1ccec1	0.0023926946
210	0x3f03ca70	0.5148077
211	0x3e288089	0.16455282
212	0xbd847d66	-0.0646923
213	0x3f08b052	0.53394043
214	0xbe7dfc81	-0.24803354
215	0xbe95eca2	-0.292821
216	0xbff7e401	-1.9366456
217	0xbec5ff14	-0.38671172
218	0x3f8704bf	1.0548323
219	0xbf87bdb6	-1.060477
220	0xbe29f867	-0.16598664
221	0x3fc82a19	1.5637847
222	0xbfb39798	-1.4030638
223	0xbf24e515	-0.6441205
224	0x3fc8ecde	1.5697286
225	0xbfd85c39	-1.6903144
226	0xbf0e705a	-0.55640185
227	0x3fd9bbc2	1.7010424
228	0xbffb2ac8	-1.9622431
229	0xbf07d2d5	-0.5305608
230	0x3fb30669	1.3986331
231	0xc02b32e4	-2.674981
232	0xbf694e1c	-0.9113481
233	0x3fbbcebb	1.4672464
234	0xbe1dca4d	-0.15409203
235	0x404a46d4	3.160573
236	0xbf2130d9	-0.6296516
237	0x3e0788cf	0.13235782
238	0x4043967f	3.0560606
239	0xbf1e01b1	-0.6172133
240	0xbe608559	-0.21925868
241	0x4019fdbd	2.406112
242	0xbee110f0	-0.43958235
243	0x3f5f1299	0.8713775
244	0xbe1e51d4	-0.15460902
245	0xbfd9b4d1	-1.7008306
246	0x3f7b06e3	0.98057383
247	0xbe894d62	-0.2681685
248	0xbf2b3b3d	-0.66887265
249	0x3f080fca	0.5314909
250	0xbdcdc36b	-0.10047039
251	0xbeae510c	-0.3404621
252	0xbf7bb4b1	-0.9832259
253	0xbfa61b08	-1.2976999
254	0xbe9caa49	-0.30598667
255	0x3cfa5d78	0.030562147

resmoduleB1.conv2.weight f4 [32, 32, 5, 1]
0	0xbf0a57c0	-0.54040146
1	0x3dbd03d1	0.092292435
2	0x3e1078d7	0.14108597
3	0x3df554e1	0.1197908
4	0xbf180196	-0.5937742
5	0x3fc11d7f	1.5087126
6	0x3fff0f42	1.9926531
7	0xbef1c82d	-0.47223035
8	0x3e33c415	0.17555268
9	0x3f590c0a	0.84783995
10	0x3f628c3d	0.88495237
11	0x3f4c9a2a	0.79922736
12	0x3ea466c4	0.32109654
13	0xbe2f1432	-0.17097548
14	0xbf2e23ef	-0.6802358
15	0x3fb448b7	1.4084691
16	0xbf5b0902	-0.8556062
17	0xbec2f829	-0.38079956
18	0xbf3af971	-0.7303687
19	0xbf24f5a4	-0.6443732
20	0xbf24e6cf	-0.64414686
21	0xbb98614e	-0.0046502715
22	0x3f0ee6e0	0.5582104
23	0xbec0eb4c	-0.37679517
24	0xbff1a8e1	-1.8879663
25	0x3ff1ceb2	1.8891203
26	0x3fa6ad5c	1.3021655
27	0x3f43a6e5	0.76426536
28	0x3f542a10	0.8287668
29	0x3f64bd37	0.8935122
30	0x3f47ede8	0.7809739
31	0x3e3d3bfb	0.18479912
32	0x3ed34a4f	0.4126763
33	0xbf42c29c	-0.760782
34	0x3e567c26	0.20945796
35	0xc02f63fd	-2.7404778
36	0xbfdc1cb7	-1.7196263
37	0xbf775d39	-0.9662662
38	0xbeb0ab84	-0.34505856
39	0x3f62c6ff	0.88584894
40	0x3fdb7ade	1.7146871
41	0x3f80e311	1.0069295
42	0x3e6b7caa	0.22996774
43	0xbe667bce	-0.22508165
44	0xbfa353b8	-1.2759924
45	0xbf0c01e5	-0.5469039
46	0xbdcf9b6c	-0.10137066
47	0xbe479c91	-0.19493319
48	0xbeb0b802	-0.34515387
49	0xc0139595	-2.3060048
50	0xbfa6df8f	-1.3036975
51	0xbee54717	-0.447808
52	0xbe0f5755	-0.13998158
53	0xbfa8c413	-1.3184837
54	0xbfc4c2ca	-1.5371945
55	0x3f5b1c33	0.85589904
56	0x3f81a5e2	1.0128748
57	0xbce40fe2	-0.027839605
58	0xbf7d1452	-0.9885913
59	0xbf38ed5c	-0.7223718
60	0xbf0da040	-0.5532265
61	0xbf15d6e9	-0.5853105
62	0x3f80d471	1.0064832
63	0x3f7e52bc	0.9934499
64	0x3efbde41	0.49193004
65	0xbf9af571	-1.2106153
66	0xbf9857b2	-1.1901762
67	0xbf9a6118	-1.2060881
68	0xbf8bf718	-1.0934782
69	0xbfcf7a5a	-1.6209214
70	0x3ddb5cd8	0.10711068
71	0xbebfadf7	-0.37437412
72	0xbf4072c4	-0.7517512
73	0xbf4939a7	-0.78603595
74	0x3f094aa3	0.5362951
75	0x3e90b5ef	0.28263804
76	0x3e66b066	0.22528228
77	0x3f2eeafc	0.6832731
78	0x3f0a2816	0.53967416
79	0x3f386141	0.720234
80	0xbf0ba5cd	-0.54549867
81	0x3ee3568d	0.4440197
82	0xbe931b4d	-0.28731766
83	0xbf17dff2	-0.5932609
84	0xbf8c9c1f	-1.0985144
85	0xbea9ef45	-0.3319036
86	0xbf0662ed	-0.524947
87	0xbd243457	-0.040088978
88	0x3ee95def	0.45579478
89	0xbf2f3392	-0.68438065
90	0x3d1f49a6	0.038888596
91	0x3ed76c2a	0.4207471
92	0x3ae3049e	0.0017320102
93	0x3f136a82	0.57584393
94	0xbf7920f9	-0.9731594
95	0x3f1f78bc	0.622936
96	0x3f75a098	0.9594817
97	0x3fbd4e7e	1.4789579
98	0x3fe08c6c	1.7542853
99	0x3ec272bb	0.37978157
100	0xbec18541	-0.37796977
101	0x3fc10aa9	1.5081378
102	0x3f7f9cfc	0.99848914
103	0x3f46d6b7	0.7767138
104	0x400c966e	2.1966815
105	0x3e0d7bd8	0.13816774
106	0xbe079af2	-0.132427
107	0x3f0394ae	0.5139874
108	0x3e3aba9a	0.18235245
109	0x3f473096	0.7780851
110	0x3dbf5aef	0.09343516
111	0xbe527fe2	-0.20556596
112	0xbfe99ff2	-1.8251936
113	0xbef8192f	-0.48456714
114	0xbeb08049	-0.34472874
115	0x3f3d2afb	0.7389371
116	0x3f9c4fe8	1.2211885
117	0x3f4f13ed	0.8088978
118	0x3ed5ce41	0.41758922
119	0xbfcd3852	-1.6032813
120	0x3ed34300	0.41262054
121	0x3f790c92	0.97284806
122	0x3eb17019	0.34655836
123	0x3dcd2f79	0.1001882
124	0x3f834e13	1.0258201
125	0x3fc36cd8	1.5267591
126	0x3f753036	0.9577669
127	0xbe7dc59b	-0.24782412
128	0xbf55a287	-0.8345112
129	0xbfedadfa	-1.8568718
130	0xbfdbe7ff	-1.7180175
131	0xbfb20b4e	-1.39097
132	0xbf486fbf	-0.7829551
133	0xbf35a000	-0.70947266
134	0xc03ac09f	-2.9180067
135	0xbff993ef	-1.9498271
136	0xbf878965	-1.0588804
137	0x3e579402	0.21052554
138	0x3b7e5fe9	0.003881449
139	0xbfae66b5	-1.3625094
140	0xbfce40eb	-1.6113561
141	0xbf2bc422	-0.6709615
142	0xbe307ecd	-0.1723587
143	0xbfa9bef7	-1.3261403
144	0xbe4943b2	-0.1965473
145	0x3fe8f300	1.8199158
146	0x3f9b3df1	1.2128278
147	0x3dc51c76	0.09624569
148	0xbefe3135	-0.49646917
149	0xbf89764e	-1.0739229
150	0xbf42c240	-0.7607765
151	0xbee80542	-0.4531651
152	0x3ebe6b46	0.37191218
153	0x3f6dc5bd	0.9287985
154	0x3f7f9369	0.99834305
155	0xbe9c4265	-0.30519405
156	0xbf03e08a	-0.51514494
157	0xc00679c0	-2.101181
158	0xc024e795	-2.5766346
159	0xbfd7b3bb	-1.6851724
160	0x3e7c68f5	0.24649413
161	0xbd75587d	-0.059898842
162	0xbf16477f	-0.58702844
163	0xbec3d2b5	-0.38246694
164	0xbe8562bc	-0.2605189
165	0x3f1cf19b	0.6130616
166	0xbc6431d8	-0.013927899
167	0xbe220415	-0.1582187
168	0xbede4168	-0.43409276
169	0x3e832c9d	0.25619975
170	0xbe4c122c	-0.19928807
171	0xbe3fe8b1	-0.18741108
172	0xbee5586a	-0.44794017
173	0xbee31ed4	-0.44359457
174	0xbe6f8113	-0.23389082
175	0x3fba893f	1.4573134
176	0x3f4c1518	0.79719687
177	0x3e9d029c	0.30666053
178	0x3f6d97db	0.9280984
179	0x3f448489	0.7676473
180	0x3eab81c8	0.33497453
181	0x3edfa1ab	0.4367803
182	0x3d9c001f	0.076172106
183	0xbe5398d3	-0.20663767
184	0xbf39703d	-0.7243689
185	0xbfdbd27b	-1.7173609
186	0xbf94f9fb	-1.1638788
187	0xbf47277f	-0.7779464
188	0xbe09cbf6	-0.13456711
189	0x3eb688a1	0.35651115
190	0xbf598ceb	-0.8498065
191	0xbf54a323	-0.83061427
192	0x3dec558f	0.115397565
193	0xbd4f0428	-0.050541073
194	0xbf0c2e8b	-0.5475852
195	0x3f3a7c2c	0.7284572
196	0x3dfb0d23	0.12258365
197	0x3d985896	0.074387714
198	0xbf625c25	-0.8842185
199	0xbf81da2a	-1.0144703
200	0x3f3c7897	0.73621505
201	0x3ed6fb0b	0.41988406
202	0x3e918409	0.28421047
203	0x3f199415	0.5999158
204	0x3ebe079e	0.37115186
205	0xc021c440	-2.5276031
206	0xc02a51c2	-2.66124
207	0xbfcc8553	-1.5978187
208	0xbfcd5ede	-1.6044576
209	0xbfc475ca	-1.5348446
210	0xbfb19e20	-1.3876381
211	0xbfabb8bb	-1.341575
212	0xbf62425d	-0.8838251
213	0xbfa1015e	-1.2578542
214	0xbd9c2b9a	-0.07625504
215	0xbe59e61c	-0.21279186
216	0xbf9de341	-1.2334977
217	0x3e552e12	0.20818356
218	0xbeda6efb	-0.42662796
219	0xbe8ccd53	-0.275004
220	0xc001e306	-2.0294814
221	0xbf16e8d4	-0.5894902
222	0xbec2ee6e	-0.38072532
223	0x3edc6658	0.43046832
224	0xbfa42b0d	-1.2825638
225	0x3eabbba9	0.3354161
226	0x3f06865e	0.5254878
227	0x3f0fb8ca	0.5614134
228	0x3ef30c31	0.4747024
229	0x3ea00607	0.31254598
230	0x3fbef394	1.4918084
231	0x3f8259d3	1.0183662
232	0x3f43a9c4	0.76430917
233	0x3ea5b8ee	0.32367653
234	0x3ef49d81	0.47776416
235	0xbe999372	-0.29995304
236	0xbd80c230	-0.06287038
237	0xbec86a0e	-0.39143413
238	0xbe9d0028	-0.30664182
239	0xbec63b9b	-0.3871735
240	0xbf6bef96	-0.92162454
241	0xbfa46e66	-1.2846191
242	0xbf2dc466	-0.67877805
243	0x3e9fe7da	0.31231576
244	0xbe92bca0	-0.28659534
245	0xbf74e787	-0.9566578
246	0xbf1ea0df	-0.6196422
247	0xbea3b2ae	-0.3197226
248	0xbed7ef22	-0.4217463
249	0x3ed3196a	0.41230327
250	0xbf559891	-0.8343592
251	0xbf94f0d4	-1.1635995
252	0xbf6785a5	-0.904383
253	0xbf90bdd5	-1.1307932
254	0xbe89295b	-0.26789364
255	0xbfdb04cc	-1.7110839

resmoduleB1.norm1.weight f4 [32]
0	0x3fc6463f	1.5490187
1	0x3fa8e69a	1.3195374
2	0x3f802805	1.0012213
3	0x3fd030ac	1.6264853
4	0x3fbb363d	1.4625927
5	0x3fdca10e	1.723665
6	0x3fd6bf9d	1.6777226
7	0x3f9ece7e	1.2406766
8	0x3fa8033b	1.3125986
9	0x3fd6d1d4	1.6782784
10	0x3fbb9394	1.4654412
11	0x3f9b611a	1.2139008
12	0x3fc713fd	1.5552975
13	0x3fd26d40	1.643959
14	0x3fa86f4c	1.3158965
15	0x3f96cfab	1.1782125
16	0x4002d8b3	2.0444763
17	0x3fb97f29	1.4491931
18	0x3fbec716	1.4904506
19	0x3fe9ff2d	1.8280998
20	0x3fe2ec27	1.7728318
21	0x3f9bb642	1.2164996
22	0x3fd8fb5d	1.695171
23	0x3fbc434a	1.4708035
24	0x3fdc27f3	1.7199692
25	0x3fab588d	1.3386399
26	0x3fbdb857	1.4821881
27	0x400dc22d	2.2149765
28	0x3fe9abb4	1.8255525
29	0x3f92ef30	1.1479244
30	0x3f963ed5	1.1737925
31	0x3fb60eb4	1.4223237

resmoduleB1.norm1.bias f4 [32]
0	0xbf8bf5a8	-1.0934343
1	0xbf200780	-0.62511444
2	0xbf183f25	-0.5947135
3	0xbf831452	-1.0240576
4	0xbfb4d375	-1.4127032
5	0xbf901826	-1.125737
6	0xbeccbb25	-0.3998653
7	0xbeda6b94	-0.426602
8	0xbf96b891	-1.1775075
9	0xbf82c89e	-1.0217474
10	0xbfae9a03	-1.3640751
11	0xbefa63d0	-0.48904276
12	0x3de4fd3c	0.11181113
13	0xbf224f20	-0.63401985
14	0xbfbb92c6	-1.4654167
15	0x3ef9d407	0.48794577
16	0x3d7ff07b	0.0624852
17	0xbf9d192d	-1.2273308
18	0xbe90422e	-0.2817549
19	0xbf81eade	-1.0149801
20	0xbf9bb083	-1.2163242
21	0xbf7ea135	-0.9946473
22	0xbf6fc7c0	-0.9366417
23	0xbf8a01c2	-1.0781786
24	0xbf92745e	-1.1441762
25	0xbfa008ab	-1.2502645
26	0xbf8c582f	-1.0964411
27	0xbf35c3af	-0.71001714
28	0xbf390f4b	-0.7228896
29	0xbea5c169	-0.32374123
30	0xbec947ad	-0.39312497
31	0xbfb68831	-1.4260312

resmoduleB1.norm2.weight f4 [32]
0	0x3f608d72	0.8771583
1	0x3f913cfb	1.1346735
2	0x3fcb686c	1.5891242
3	0x3fdb2545	1.7120749
4	0x3fc4285c	1.5324817
5	0x3f9758a9	1.1823932
6	0x3fb13c7e	1.3846586
7	0x3f3a9e1e	0.7289752
8	0x3f8260f3	1.0185837
9	0x3f843bc5	1.033074
10	0x3f62d2d2	0.88602936
11	0x3fac7b64	1.3475156
12	0x40122f04	2.2841196
13	0x3f27963e	0.65463626
14	0x3fd09612	1.6295798
15	0x3f1db952	0.616109
16	0x3fc66ae8	1.5501375
17	0x3ff9de11	1.9520894
18	0x3f91c550	1.138834
19	0x3fb1dbbe	1.3895185
20	0x40138f22	2.3056111
21	0x3fe5d4c7	1.795556
22	0x3fa76e33	1.3080505
23	0x3f69f6bf	0.9139213
24	0x3fb63885	1.4235998
25	0x3f9d6789	1.2297221
26	0x3fd0bf71	1.6308423
27	0x3fa1f1b3	1.2651886
28	0x3ff35e81	1.9013215
29	0x3f42488b	0.7589194
30	0x3fd10369	1.6329166
31	0x3f9be568	1.2179384

resmoduleB1.norm2.bias f4 [32]
0	0xbf74ddd8	-0.95651007
1	0xbf2d088d	-0.6759117
2	0xbead4723	-0.33843336
3	0xbf89b1c1	-1.0757371
4	0xbf9ab978	-1.208785
5	0xbf853b32	-1.040869
6	0xbeb867ac	-0.36016595
7	0xbeb6aabf	-0.35677144
8	0xbf3c943d	-0.73663694
9	0xbfc43b02	-1.5330508
10	0xbf844f14	-1.0336633
11	0xbf9f7761	-1.2458307
12	0xbf87e131	-1.0615598
13	0xbf823e9b	-1.0175356
14	0xbf810a13	-1.00812
15	0xbf032dff	-0.5124206
16	0xbe9ffbda	-0.31246835
17	0xbf5d022d	-0.86331445
18	0xbfb754fd	-1.4322811
19	0xbf9ee44f	-1.2413424
20	0xbf169223	-0.58816737
21	0xbf41b01e	-0.7565936
22	0xbf66531e	-0.89970577
23	0xbf5b7169	-0.85719925
24	0xbf170936	-0.5899843
25	0xbf5bf117	-0.8591475
26	0xbfaf305c	-1.3686633
27	0xbfc88ac8	-1.5667353
28	0xbf776ad8	-0.96647406
29	0xbf26eac9	-0.65202004
30	0xbf4d6d94	-0.8024533
31	0xbf89d26a	-1.0767338

resmoduleB2.conv1.weight f4 [32, 32, 3, 3]
0	0x3e9c1a28	0.30488706
1	0xbfa55e02	-1.2919314
2	0xbf46aff9	-0.7761226
3	0x3cfcf30a	0.030877609
4	0xbfa24ef9	-1.268035
5	0xbf1542d9	-0.58305126
6	0x3cfe8b8a	0.031072397
7	0xbfb9c6a6	-1.4513748
8	0xbee76952	-0.4519754
9	0xbf188d47	-0.5959057
10	0x3dddc0a5	0.1082776
11	0xc01889ee	-2.3834186
12	0xbeac1fc7	-0.33617994
13	0x3e1d1da4	0.15343338
14	0xc0063e16	-2.0975394
15	0xbf01274d	-0.50450593
16	0x3e2bf59a	0.16792908
17	0xc00821ba	-2.1270585
18	0x3ebd4a41	0.36970714
19	0xbed33a66	-0.41255492
20	0xbf1bdebb	-0.60886735
21	0x3ea73138	0.32654738
22	0xbe3e3e8c	-0.18578547
23	0xbf454c01	-0.770691
24	0x3efae5dd	0.49003497
25	0x3eeb969c	0.46013343
26	0xbf6ad8f5	-0.917373
27	0x3c1ddafe	0.009634731
28	0x3fa3eebd	1.2807232
29	0x3e999939	0.29999712
30	0xbe00a9c1	-0.12564756
31	0x3f2c3ab8	0.672771
32	0x3cf2fb63	0.029660886
33	0xbef26782	-0.47344595
34	0xbe818f68	-0.25304723
35	0xbf61b7d0	-0.881711
36	0xbf8b5db3	-1.088797
37	0xbd9a30e7	-0.07528859
38	0x3fa07511	1.2535726
39	0xbf939ab0	-1.1531582
40	0xbc6c5b78	-0.014426105
41	0x3f225e03	0.634247
42	0xbf4f06a7	-0.80869526
43	0x3e2b829f	0.16749047
44	0x3d85bade	0.06529783
45	0xc029f08c	-2.6553068
46	0x3cd64aa5	0.02615864
47	0x3f81bd4e	1.0135896
48	0xbff8b86c	-1.9431281
49	0xbe5ae9e4	-0.21378285
50	0x3f7dfeb2	0.9921676
51	0xbff6d805	-1.9284674
52	0xbeeda2c2	-0.46413237
53	0x3e99682c	0.2996229
54	0x3f3ad291	0.7297755
55	0xbf1ec69f	-0.6202182
56	0xbea1dc1b	-0.3161324
57	0x3f57c8b4	0.84290624
58	0xbe8801a1	-0.26563743
59	0xbd91b0fb	-0.071138345
60	0x3d8785c0	0.06617308
61	0xbea76036	-0.3269059
62	0xbf38ae04	-0.72140527
63	0x3e96c23a	0.29445058
64	0xbff038c1	-1.876732
65	0x3f156bf4	0.5836785
66	0x3e7f44f3	0.24928646
67	0xc027bb89	-2.6208212
68	0x3f213519	0.62971646
69	0x3ec8c434	0.3921219
70	0xc040142a	-3.0012307
71	0x3f1bd6d7	0.60874695
72	0xbf878157	-1.0586346
73	0xbf9cb2d1	-1.224207
74	0x3f287c72	0.6581489
75	0xbfbdcde7	-1.4828461
76	0xbf12a38f	-0.5728082
77	0x3f88e89f	1.069599
78	0xbfcc6f77	-1.5971516
79	0xbf046350	-0.5171404
80	0x3fbf0087	1.4922036
81	0x3e2c5910	0.1683085
82	0x3e0cf6b6	0.13765988
83	0xbe0cfd62	-0.13768533
84	0x3ce2ccec	0.027685605
85	0xbc54ed51	-0.012996034
86	0xbec24742	-0.3794499
87	0xbd94db3e	-0.0726838
88	0xbeacb373	-0.3373066
89	0x3e7ea605	0.24868019
90	0x3f22eb45	0.6364024
91	0xbe44fe39	-0.19237603
92	0xbf1bdc80	-0.6088333
93	0x3ea0be1f	0.3139505
94	0xbe5a20fc	-0.21301645
95	0xbf173e14	-0.590791
96	0x3e493e64	0.19652706
97	0xbe981585	-0.29703918
98	0xbde6211f	-0.11236786
99	0x3f9a3f1c	1.205051
100	0xbd2b9b87	-0.04189637
101	0xbf863e6e	-1.0487802
102	0x3f998a2b	1.199529
103	0x3d2e0e80	0.042494297
104	0xbf90865b	-1.1291002
105	0x3f6d38f5	0.92665035
106	0x3d38ceab	0.04511897
107	0xbf7d0468	-0.9883485
108	0x3fd2d5bc	1.6471477
109	0x3dc80839	0.09767193
110	0x3e2d8127	0.16943799
111	0x3fa04b2b	1.252294
112	0x3ecd851a	0.4014061
113	0x3e2a741d	0.16645856
114	0x3f240a29	0.64078003
115	0x3f919d15	1.1376063
116	0x3da0ed89	0.07857806
117	0x3fa5e93b	1.2961801
118	0xbfac1ba2	-1.3445933
119	0xbff1754f	-1.8863925
120	0x3f85f8c5	1.0466543
121	0xbf80f242	-1.0073931
122	0xbffbb587	-1.9664773
123	0x3f13203c	0.5747106
124	0xbf94da98	-1.162921
125	0xc015b03e	-2.338882
126	0x400ef428	2.233652
127	0xbf50e78e	-0.81603324
128	0xbfadfab6	-1.3592136
129	0x40019b7a	2.0251145
130	0xbedc21cc	-0.42994535
131	0xbf6492e8	-0.8928666
132	0x3fe93223	1.8218426
133	0x3e25d1bb	0.16193287
134	0xbee0c06f	-0.43896815
135	0x3e259c52	0.16172913
136	0xbf23fdfc	-0.64059424
137	0xbec7657e	-0.3894462
138	0x3f46f982	0.7772447
139	0xbf112dee	-0.5671071
140	0xbeed59bd	-0.46357527
141	0x3edd95ca	0.43278342
142	0xbf0a6e10	-0.5407419
143	0xbf7f9f6c	-0.99852633
144	0x3e2f74dd	0.17134424
145	0xbfc6e36d	-1.5538155
146	0xbe9fcee2	-0.31212527
147	0x3ea532a3	0.32265195
148	0xbf8166f5	-1.0109545
149	0xbdad7739	-0.084700055
150	0x3ed80a4c	0.42195356
151	0xbe3aa019	-0.18225135
152	0x3e948a1f	0.29011628
153	0x3f342c8a	0.7038046
154	0xbf8559b1	-1.0417997
155	0xbf364778	-0.712028
156	0x3f4fc9f8	0.81167555
157	0xbf851ffb	-1.0400385
158	0x3d3e8337	0.046511855
159	0x3f632452	0.88727295
160	0xbf354eca	-0.7082335
161	0xbb0f9b20	-0.002191253
162	0x3f9ecd86	1.2406471
163	0x3e3e763f	0.18599795
164	0xbf3d7a53	-0.74014777
165	0x3fb1d447	1.3892907
166	0xbedff7dd	-0.43743792
167	0xbed350e8	-0.41272664
168	0x3f883e3f	1.0643996
169	0xbf7f5a7f	-0.9974746
170	0xbf767654	-0.96274304
171	0xbecc960c	-0.39958227
172	0xbf2b7c8a	-0.66986907
173	0x3ef3473c	0.47515285
174	0xbdf96eaf	-0.12179314
175	0xbf928936	-1.1448123
176	0x3ecfc62c	0.4058088
177	0xbe77a64b	-0.2418453
178	0xbf87a411	-1.0596944
179	0x3f7bd7d7	0.9837622
180	0x3f2ea8d1	0.68226343
181	0xbf9103bf	-1.1329268
182	0x3ebe3d7e	0.3715629
183	0x3ed6e4ed	0.41971532
184	0xbe158c7d	-0.14604373
185	0x3ec12702	0.37725073
186	0xbef5643a	-0.4792803
187	0x3f3c9e9f	0.73679537
188	0x3f2096d7	0.62730163
189	0x3f6c848c	0.9238975
190	0x3ef4e3d9	0.47830084
191	0xbf95ffc2	-1.1718676
192	0x3fa1dddb	1.264583
193	0xbc954cb2	-0.018225048
194	0xbfe738f1	-1.8064252
195	0x3f8eb6e8	1.1149569
196	0xbf40ace8	-0.75263834
197	0xc025b255	-2.5890095
198	0xbfd59711	-1.6686727
199	0x3e2847cd	0.1643364
200	0xbfd6c339	-1.6778327
201	0xbfd76c1e	-1.682987
202	0x3d972b54	0.07381311
203	0xbff23c01	-1.8924562
204	0xbf8deae8	-1.1087313
205	0xbde9fef7	-0.11425584
206	0xbfd397c9	-1.6530696
207	0xbfe6d18d	-1.80327
208	0xbd2ab6f2	-0.041678376
209	0x3e754232	0.23951033
210	0xbfdab03a	-1.708503
211	0xbd8fb644	-0.07017186
212	0x3e0dd9f5	0.13852675
213	0xbfbc24c8	-1.4698725
214	0xbe0a3de4	-0.13500172
215	0x3df1d65b	0.11808463
216	0xbf98fbc9	-1.1951839
217	0xbf088d6c	-0.5334079
218	0xbfaa8c74	-1.3324113
219	0xbf89e319	-1.077243
220	0xbc47830f	-0.012177243
221	0xbf82c147	-1.0215234
222	0xbf104ed1	-0.56370264
223	0x3e487faf	0.19579957
224	0xbee58dbc	-0.44834697
225	0xbea7a6c9	-0.32744434
226	0x3f81bb02	1.0135195
227	0x3f05bfa4	0.52245545
228	0x3f099068	0.5373597
229	0x3fa762d1	1.3077031
230	0x3f3ec20a	0.7451483
231	0x3ec290e4	0.38001168
232	0x3f79e2de	0.97611797
233	0x3f6d78bf	0.9276237
234	0xbddb9d59	-0.10723371
235	0x3e92e7b9	0.28692415
236	0xbfafdcb3	-1.3739227
237	0xbe15a10d	-0.14612217
238	0x3e9e6952	0.30939728
239	0xbf9c6a7b	-1.2219995
240	0xbdbe62f9	-0.09296221
241	0x3e8ca903	0.27472696
242	0xbf89d535	-1.0768191
243	0x3f033573	0.5125343
244	0xbf3928e2	-0.7232801
245	0xbe44c062	-0.19214013
246	0x3f2172a7	0.6306557
247	0xbf8403ba	-1.0313637
248	0x3e0562e0	0.13025999
249	0x3ee6d5d2	0.45085007
250	0xbf9d9732	-1.2311766
251	0x3ef0a401	0.47000125
252	0x3ec29ee0	0.38011837
253	0xbf95bcc5	-1.1698233
254	0xbedc2633	-0.42997894
255	0x3ef066cf	0.46953437
