checkpoint/model_epoch_67.pth (torch_old, 708579 bytes, 59 tensors)

featurefusion.Prewitt_Operator.weight f4 [3, 1, 5, 5]
0	0x40000000	2.0
1	0x3f800000	1.0
2	0x00000000	0.0
3	0xbf800000	-1.0
4	0xc0000000	-2.0
5	0x40000000	2.0
6	0x3f800000	1.0
7	0x00000000	0.0
8	0xbf800000	-1.0
9	0xc0000000	-2.0
10	0x40000000	2.0
11	0x3f800000	1.0
12	0x00000000	0.0
13	0xbf800000	-1.0
14	0xc0000000	-2.0
15	0x40000000	2.0
16	0x3f800000	1.0
17	0x00000000	0.0
18	0xbf800000	-1.0
19	0xc0000000	-2.0
20	0x40000000	2.0
21	0x3f800000	1.0
22	0x00000000	0.0
23	0xbf800000	-1.0
24	0xc0000000	-2.0
25	0x40000000	2.0
26	0x3f800000	1.0
27	0x00000000	0.0
28	0xbf800000	-1.0
29	0xc0000000	-2.0
30	0x40000000	2.0
31	0x3f800000	1.0
32	0x00000000	0.0
33	0xbf800000	-1.0
34	0xc0000000	-2.0
35	0x40000000	2.0
36	0x3f800000	1.0
37	0x00000000	0.0
38	0xbf800000	-1.0
39	0xc0000000	-2.0
40	0x40000000	2.0
41	0x3f800000	1.0
42	0x00000000	0.0
43	0xbf800000	-1.0
44	0xc0000000	-2.0
45	0x40000000	2.0
46	0x3f800000	1.0
47	0x00000000	0.0
48	0xbf800000	-1.0
49	0xc0000000	-2.0
50	0x40000000	2.0
51	0x3f800000	1.0
52	0x00000000	0.0
53	0xbf800000	-1.0
54	0xc0000000	-2.0
55	0x40000000	2.0
56	0x3f800000	1.0
57	0x00000000	0.0
58	0xbf800000	-1.0
59	0xc0000000	-2.0
60	0x40000000	2.0
61	0x3f800000	1.0
62	0x00000000	0.0
63	0xbf800000	-1.0
64	0xc0000000	-2.0
65	0x40000000	2.0
66	0x3f800000	1.0
67	0x00000000	0.0
68	0xbf800000	-1.0
69	0xc0000000	-2.0
70	0x40000000	2.0
71	0x3f800000	1.0
72	0x00000000	0.0
73	0xbf800000	-1.0
74	0xc0000000	-2.0

firstConvLayer.conv.weight f4 [32, 6, 5, 5]
0	0x407f0082	3.984406
1	0x40501629	3.2513525
2	0x401a2119	2.4082701
3	0x403ed0d8	2.9814968
4	0x3f24e2ca	0.6440855
5	0x404df552	3.2180982
6	0x404b25af	3.174175
7	0x40209c53	2.5095413
8	0x405d523a	3.4581437
9	0x3fa8b7ec	1.3181129
10	0x404d51ab	3.2081096
11	0x404e6b8f	3.2253149
12	0x402aaded	2.6668656
13	0x40603416	3.503179
14	0x3f8fec88	1.1244059
15	0x40472006	3.1113296
16	0x401d191f	2.4546583
17	0x40306dde	2.7567058
18	0x404bd678	3.1849651
19	0x3f3259aa	0.69668067
20	0x404e478b	3.2231166
21	0x400e9b77	2.2282388
22	0x4031a0db	2.7754428
23	0x4034b79a	2.8237062
24	0x3f232407	0.6372685
25	0x402fbdd3	2.745961
26	0x403682f0	2.8517418
27	0x4009b49e	2.151649
28	0x40211122	2.5166707
29	0x3fe36a5a	1.7766831
30	0x403120e5	2.7676327
31	0x401bf802	2.4370122
32	0x40175e18	2.365118
33	0x4051102a	3.2666116
34	0x401a9b38	2.4157238
35	0x403a6745	2.912553
36	0x40217d50	2.5232735
37	0x40053150	2.0811348
38	0x405516e2	3.3295217
39	0x40036bd1	2.0534556
40	0x4034fd14	2.8279467
41	0x4019bf66	2.402307
42	0x40395117	2.8955743
43	0x4044ab81	3.0729678
44	0x4000a71c	2.0101995
45	0x4043ef7a	3.0614915
46	0x401a4d69	2.4109747
47	0x404dddec	3.21667
48	0x40375d11	2.8650553
49	0x3feaf5df	1.8356284
50	0x401ad6ff	2.4193723
51	0x40321183	2.7823188
52	0x3fd28a11	1.6448385
53	0x40350a36	2.8287482
54	0x3fa541c2	1.2910693
55	0x3ffe1a23	1.9851726
56	0x3fdbe706	1.7179878
57	0x4001d823	2.028817
58	0x405a1619	3.4075987
59	0x3fce49e9	1.6116306
60	0x3fc1f67a	1.5153344
61	0x3fb60f7e	1.4223478
62	0x3ff5b19a	1.9194825
63	0x4060216e	3.5020404
64	0x3fd9ee99	1.7025939
65	0x3fc02bad	1.5013329
66	0x3fe052e8	1.7525301
67	0x40137878	2.3042278
68	0x4068b48e	3.6360202
69	0x3fabbd24	1.3417096
70	0x3fd79a14	1.6843896
71	0x3f9b1479	1.2115623
72	0x404f0a45	3.2350018
73	0x404e8ccf	3.2273443
74	0x3f8969c3	1.0735401
75	0x3ea50315	0.32228914
76	0x3eaf5aa2	0.34248835
77	0x3fa8a7f3	1.3176254
78	0x3e921540	0.28531837
79	0xbdccd4e4	-0.10001543
80	0x3e86ee50	0.26353693
81	0x3ef2c66a	0.47417003
82	0x3f938fc6	1.1528251
83	0x3e9731a0	0.29530048
84	0xbe80d147	-0.25159666
85	0x3ec8ffbb	0.39257607
86	0x3f03f039	0.51538426
87	0x3f756a63	0.9586546
88	0x3ee26c65	0.44223323
89	0xbe4d35d1	-0.2004006
90	0x3e9c147c	0.30484378
91	0x3ebfb4e6	0.37442702
92	0x3f4e3327	0.805468
93	0x3eb520e2	0.3537665
94	0xbe11c340	-0.14234638
95	0x3eb55e5a	0.35423547
96	0x3e34f7e0	0.17672682
97	0x3fbdebd6	1.4837596
98	0x3f4bea58	0.79654455
99	0xbdc09b32	-0.09404601
100	0xbfa27267	-1.2691163
101	0xbec36960	-0.38166332
102	0x3f056368	0.52104807
103	0x3eba955b	0.36442074
104	0xbe14d1cd	-0.14533158
105	0xbf23ca52	-0.6398059
106	0x3d3a2958	0.045449585
107	0x3ec1b7b4	0.37835467
108	0x3efd4c21	0.49472144
109	0xbd661e48	-0.056181222
110	0xbdb459c6	-0.088061854
111	0xbdeca5b0	-0.1155504
112	0x3dcc7897	0.09983938
113	0x3e945c38	0.28976607
114	0x3e57f31d	0.21088834
115	0x3d255419	0.040363405
116	0xbe2c73e4	-0.16841084
117	0x3cf833aa	0.030298073
118	0x3ee0bcfb	0.4389418
119	0x3ed9d015	0.42541566
120	0xbe019ca7	-0.12657414
121	0xbe720781	-0.23635675
122	0x3f5e13fe	0.86749256
123	0x3f934a7f	1.1507109
124	0x3f2a046b	0.6641299
125	0xbf0a4da4	-0.5402472
126	0xbf923341	-1.1421891
127	0xbec8487d	-0.39117804
128	0x3e076d34	0.13225251
129	0xbe142ed9	-0.14470996
130	0xbe9ea849	-0.30987766
131	0xbf4c09fd	-0.7970274
132	0xbeae5eb9	-0.34056643
133	0x3dc22863	0.094803594
134	0xbcc918e8	-0.024548009
135	0xbc5f9623	-0.013646635
136	0xbf627227	-0.8845543
137	0xbf4a63f2	-0.79058754
138	0xbe12f747	-0.14352141
139	0xbc0df8c4	-0.008665267
140	0x3ea5ba37	0.32368633
141	0xbf7e1672	-0.99253
142	0xbf042fff	-0.51635736
143	0xbe425514	-0.18977767
144	0xbdd66a2d	-0.1046947
145	0x3f090a51	0.53531367
146	0xbebc3717	-0.3676078
147	0xbd0134b6	-0.03154441
148	0x3e1fbbf6	0.15599045
149	0xbdadd8c1	-0.08488608
150	0x3ec34c00	0.3814392
151	0xbed84fac	-0.42248285
152	0xbf531939	-0.8246036
153	0x3ead3f0c	0.33837163
154	0x3eac0806	0.3359987
155	0x3eb4c6fa	0.35308057
156	0xbed975ed	-0.42472783
157	0xbf56e4fb	-0.83943146
158	0x3f15e498	0.5855193
159	0x3e988f9e	0.2979707
160	0x3e8457cd	0.25848237
161	0xbe361cb7	-0.17784391
162	0xbf8231d7	-1.017146
163	0x3e7d562f	0.24739908
164	0x3eae759d	0.34074107
165	0x3cca7db6	0.024718147
166	0x3e316743	0.17324547
167	0xbf8c3f0b	-1.0956739
168	0x3f0d1295	0.5510648
169	0x3f1c4db0	0.6105604
170	0x3e819381	0.2530785
171	0xbe5fac3e	-0.21843049
172	0xbf9003ec	-1.1251197
173	0x3f1da9ec	0.61587405
174	0x3ef70918	0.48249125
175	0x3f7cd4a7	0.9876198
176	0x3ef15b73	0.47140083
177	0x3da0034f	0.07813131
178	0x3eac6e8d	0.33678094
179	0x3f180d4a	0.5939528
180	0x3f83bf0d	1.0292679
181	0x3e71e107	0.23620997
182	0x3d8f8905	0.07008556
183	0x3f2d2258	0.6763053
184	0x3f81b54f	1.0133456
185	0x3f2a628c	0.6655662
186	0x3e2d8015	0.1694339
187	0xbf47a246	-0.77981985
188	0x3e93fc88	0.28903604
189	0x3f5f891b	0.8731858
190	0x3ec58288	0.3857615
191	0x3f6d68e8	0.927382
192	0xbedac7eb	-0.4273065
193	0x3f669d77	0.9008402
194	0x3f84d553	1.0377601
195	0x3e888943	0.26667222
196	0x3f924189	1.142625
197	0xbe074a00	-0.13211823
198	0x3f63010a	0.8867346
199	0x3fbc2db5	1.4701449
200	0x3e4ec92e	0.20193931
201	0x3ee160cb	0.4401916
202	0x3c51296e	0.012766225
203	0xbcff9b4c	-0.031201981
204	0xbe079cd1	-0.13243414
205	0x3e96759f	0.29386613
206	0xbdf65827	-0.120285325
207	0xbe859d3e	-0.2609653
208	0xbc0e52d6	-0.008686742
209	0xbd4965d9	-0.049169395
210	0xbf0ad8ee	-0.5423726
211	0xbeca87e9	-0.39556816
212	0xbfd37015	-1.651858
213	0xbf0b595d	-0.5443323
214	0xbe9371bd	-0.28797713
215	0xbe7e2e13	-0.24822263
216	0x3e39cd0a	0.18144622
217	0xbf9a31f8	-1.2046499
218	0xbeb9405f	-0.36181924
219	0xbdeec113	-0.1165792
220	0xbe0e3144	-0.13885981
221	0x3cf18b5d	0.029485399
222	0xbf44a987	-0.7682118
223	0xbedbebee	-0.42953438
224	0x3e563852	0.20919922
225	0x404b41b4	3.1758852
226	0x3ef79798	0.48357844
227	0xbe4ca6d2	-0.19985512
228	0xbe932e72	-0.28746372
229	0xc04d5411	-3.208256
230	0x40416fa9	3.0224402
231	0x3e95993e	0.29218477
232	0xbe42ceca	-0.19024196
233	0xbbe4c191	-0.0069810827
234	0xc03a2ff3	-2.9091766
235	0x401f21bd	2.4864342
236	0x3d8aa147	0.067690425
237	0xbeecad1e	-0.46225828
238	0x3d63af60	0.055587173
239	0xc0397c72	-2.8982205
240	0x4015fbcb	2.3434932
241	0x3d992bf8	0.074790895
242	0xbef09792	-0.4699064
243	0xbe0cfd31	-0.1376846
244	0xc03afecf	-2.9218023
245	0x402841a1	2.6290057
246	0x3e691db0	0.22765231
247	0xbf01a17a	-0.5063702
248	0x3d151649	0.036398206
249	0xc040a15d	-3.0098488
250	0x40056c18	2.0847225
251	0x3f47512e	0.77858245
252	0x3d5df097	0.054184522
253	0xbf672316	-0.9028791
254	0xbfafbec5	-1.3730093
255	0x401ade91	2.4198344

firstConvLayer.norm.weight f4 [32]
0	0x3f37823a	0.71683085
1	0x3fc67813	1.5505394
2	0x3f920472	1.1407607
3	0x3ecfcfca	0.40588218
4	0x3f1bc1bf	0.6084251
5	0x3fdc27e5	1.7199675
6	0x3f89b7d9	1.0759231
7	0x3f18562c	0.5950649
8	0x3f9ad789	1.2097026
9	0x401d3b81	2.4567568
10	0x3fbd1020	1.4770546
11	0x3f30030b	0.68754643
12	0x3f5418c4	0.8285029
13	0x3ee4ec57	0.44711563
14	0x3f8421aa	1.0322773
15	0x3f197ebe	0.5995902
16	0x3f2afc7d	0.66791517
17	0x3f1976b6	0.59946764
18	0x3f8cc932	1.09989
19	0x3fd21a9a	1.6414368
20	0x3f28af62	0.6589261
21	0x3ee8aa42	0.45442396
22	0x3ee3642f	0.44412372
23	0x3f80e7c5	1.007073
24	0x3f1aa5ed	0.6040943
25	0x3f25c0f4	0.6474755
26	0x3f9cef1a	1.2260468
27	0x3f71c61f	0.94442934
28	0x3f106dd9	0.56417614
29	0x3f7a24f5	0.9771264
30	0x3f70b0d1	0.940198
31	0x3e9e183c	0.30877864

firstConvLayer.norm.bias f4 [32]
0	0xbe479997	-0.19492184
1	0x3ed89d35	0.4230744
2	0xbf490a35	-0.785312
3	0xbe1de30c	-0.15418643
4	0xbf33dba6	-0.7025703
5	0xbe142b64	-0.14469677
6	0xbd793546	-0.06084182
7	0xbd0bb26a	-0.034105696
8	0x3dc55929	0.096361466
9	0x3ee66485	0.44998565
10	0xbf2fa0b6	-0.686046
11	0x3e1d9fa7	0.15392934
12	0xbf029c7c	-0.51020026
13	0x3e0b7e55	0.1362241
14	0xbee4061e	-0.44535917
15	0xbda8d5f2	-0.08243932
16	0xbd2ff676	-0.042959653
17	0xbe2d784f	-0.16940425
18	0xbf07b1f2	-0.530059
19	0x3ebc3634	0.36760104
20	0xbef0c05d	-0.47021762
21	0xbf4ceef7	-0.8005213
22	0x3e300873	0.17190723
23	0xbe8b25c1	-0.2717724
24	0xbec77373	-0.38955268
25	0xbeeb42fc	-0.45949543
26	0x3e1786b4	0.14797479
27	0xbd39b684	-0.045340076
28	0xbe9793bf	-0.2960491
29	0x3e21b144	0.15790278
30	0xbe07b90f	-0.13254188
31	0xbed0ba88	-0.40767312

resmoduleA.conv1.weight f4 [32, 32, 5, 5]
0	0xbf9246de	-1.1427877
1	0xbdbdef39	-0.09274144
2	0xbdcc3d47	-0.09972625
3	0xbd43e35e	-0.047824256
4	0xbf95af88	-1.1694193
5	0xbf91202c	-1.1337943
6	0xbeb4fdd8	-0.35349917
7	0xbf11d214	-0.5696118
8	0x3e5310ca	0.20611873
9	0xbfb3be03	-1.4042362
10	0xbf3af37a	-0.73027766
11	0xbe7852ef	-0.24250387
12	0xbf18c9ec	-0.5968311
13	0x3e17efd8	0.14837587
14	0xbfa23de8	-1.2675142
15	0xbe829f8a	-0.25512344
16	0x3dac0a63	0.084004186
17	0xbefaa1e1	-0.4895163
18	0xb9f7e88d	-0.00047284775
19	0xbf70ec67	-0.9411072
20	0x3ecea7ed	0.40362492
21	0x3e7d938a	0.24763313
22	0xbd6c0d22	-0.057629712
23	0xbead0432	-0.33792263
24	0xbf3953bb	-0.7239339
25	0xbf834fe3	-1.0258754
26	0x3f0e260f	0.5552682
27	0x3f4e3a83	0.8055803
28	0x3ec73fc5	0.3891584
29	0x3fb55848	1.4167566
30	0xbf3afbae	-0.7304028
31	0x3ec687ee	0.3877558
32	0x3f3e408a	0.7431723
33	0x3f11de89	0.56980187
34	0x3ff12b9b	1.8841432
35	0xbf2304aa	-0.6367899
36	0xbdf98c7d	-0.12184999
37	0x3f4f84c1	0.8106194
38	0x3f3d12bc	0.7385671
39	0x3fdf344c	1.7437835
40	0xbecf96a6	-0.40544623
41	0x3e6b0225	0.22950037
42	0x3f14ee4b	0.58176106
43	0x3eec448a	0.4614604
44	0x3fb7b847	1.4353112
45	0xbe93e599	-0.28886107
46	0x3efe884a	0.49713355
47	0x3e881e00	0.26585388
48	0x3d84ebd9	0.06490297
49	0x3f298853	0.6622364
50	0x3e447c81	0.1918812
51	0x3d00de3d	0.031461943
52	0x3f800b0a	1.0003369
53	0x3fb1d6f2	1.3893721
54	0xbc187c51	-0.009306983
55	0x3e8659e9	0.2624047
56	0x3ec4bbc5	0.38424507
57	0x3f30cc02	0.6906129
58	0x3fb4e6c6	1.4132926
59	0xbe14a669	-0.14516605
60	0x3f40a950	0.7525835
61	0x3f797f47	0.97459835
62	0x3f355a7c	0.70841193
63	0x3f2fd08c	0.6867759
64	0xbef392c7	-0.4757292
65	0x3fc42554	1.5323892
66	0x3f5593f1	0.83428866
67	0x3f2ab2cc	0.6667907
68	0xbda8cc5a	-0.08242102
69	0xbf2f8603	-0.6856386
70	0x3fcf423e	1.619209
71	0x3f5c7fcb	0.86132497
72	0x3f260d18	0.6486373
73	0xbec56520	-0.38553715
74	0xbf71e5f9	-0.94491535
75	0xbe4bec4a	-0.19914356
76	0xbe94a8ac	-0.29034936
77	0x3ee8fd25	0.45505634
78	0x3e4243f6	0.18971238
79	0x3eec2359	0.46120718
80	0x3ee2b363	0.44277486
81	0xbe9be59d	-0.3044862
82	0x3eb53d73	0.35398445
83	0x3eac6857	0.33673355
84	0x3edfc69f	0.43706223
85	0x3f3d379d	0.73912984
86	0xbab00dbd	-0.0013431829
87	0x3f0695b4	0.5257218
88	0x3e6d5766	0.23177871
89	0x3e9dd911	0.3082967
90	0x3f3028ac	0.6881206
91	0x3e897324	0.26845658
92	0x3e9b523d	0.3033618
93	0x3e075803	0.13217168
94	0x3de591cd	0.1120945
95	0x3f1b82d5	0.6074651
96	0x3ea7c3f8	0.327667
97	0x3efb0030	0.4902358
98	0xbd352723	-0.044226777
99	0xbced7ce4	-0.028990217
100	0xbf032f3f	-0.51243967
101	0x3e8220f8	0.25415778
102	0xbdaf1c81	-0.085503586
103	0x3f03ba3c	0.51456046
104	0xbe1b4bb7	-0.15165602
105	0xbdfd3c0f	-0.12364971
106	0xbe4f17c4	-0.2022391
107	0xbc287190	-0.010280982
108	0x3ee2c9f2	0.44294697
109	0xbd42c8f8	-0.04755494
110	0xbdf40f20	-0.11916947
111	0x3b9e755d	0.004835768
112	0x3d1fa90e	0.038979582
113	0x3e17ce77	0.14824854
114	0x3e87c6a2	0.26518732
115	0x3d819ec3	0.063291095
116	0x3ed0e0dc	0.40796554
117	0x3cf77578	0.03020738
118	0xbecff120	-0.4061365
119	0x3eaf28f5	0.34210935
120	0x3e5ed99b	0.21762697
121	0x3d9d9960	0.076952696
122	0x3e832495	0.25613847
123	0xbe456cc7	-0.19279777
124	0xbe1f9eb3	-0.15587883
125	0xbfb84860	-1.4397087
126	0xbf5f9c90	-0.8734827
127	0xbea76081	-0.32690814
128	0xbe94aa67	-0.29036257
129	0x3ef3faa8	0.47652173
130	0xbf1a7c75	-0.60346156
131	0xbf66d854	-0.9017384
132	0xbfa4e4ed	-1.2882363
133	0xbf60658c	-0.8765495
134	0x3e3196cd	0.17342682
135	0xbeb2e7c1	-0.3494244
136	0x3eea3185	0.45740905
137	0xbe0b3a6c	-0.13596505
138	0xbe792dd7	-0.24333893
139	0xbfb19878	-1.3874655
140	0x3dd80e00	0.10549545
141	0x3f06f044	0.52710366
142	0xbdd2f6e9	-0.103010006
143	0x3cb302f3	0.021851992
144	0xbf87faff	-1.0623473
145	0x3f0b3f14	0.54393125
146	0xbe3758f4	-0.17905027
147	0xbed19b2e	-0.40938705
148	0xbf04b815	-0.51843387
149	0xc0197155	-2.3975422
150	0xbdd2e14a	-0.10296877
151	0xbe85beb5	-0.2612206
152	0xbf0f258f	-0.55916685
153	0xbf00c552	-0.50301087
154	0xbebfe663	-0.3748046
155	0xbf0440bb	-0.5166127
156	0xbec96205	-0.39332595
157	0xbf1e6c65	-0.61884147
158	0xbf107c34	-0.5643952
159	0x3ea38a62	0.31941515
160	0xbe171d28	-0.14757216
161	0xbe4984d9	-0.19679584
162	0xbed670e4	-0.41883004
163	0xbee05a5d	-0.43818942
164	0x3eb08b75	0.34481397
165	0x3f313e07	0.6923527
166	0x3ea778cd	0.3270935
167	0xbd95061b	-0.07276555
168	0xbe36b6b4	-0.17843133
169	0xbe6b5f6a	-0.22985616
170	0x3fa2a949	1.2707912
171	0x3f20e445	0.6284831
172	0x3e8b7606	0.27238482
173	0x3ceada04	0.028668411
174	0xbf74a815	-0.9556897
175	0xbf2dd19d	-0.6789797
176	0xbe5c0771	-0.21487214
177	0xbdd88de8	-0.105739415
178	0xbf2e2c01	-0.68035895
179	0x3e6c1a03	0.23056798
180	0xbf379a35	-0.71719676
181	0xbdf9c06e	-0.12194906
182	0x3d9de9b3	0.0771059
183	0xbeb884dd	-0.36038867
184	0xbe006be4	-0.12541157
185	0xbf2721de	-0.6528605
186	0xbe403963	-0.18771891
187	0x3e77f82d	0.24215765
188	0xbce48845	-0.02789701
189	0xbf1ba151	-0.60793024
190	0xbf03e360	-0.5151882
191	0xbea15d5d	-0.31516543
192	0x3dc7e432	0.09760322
193	0xbe8c4c7f	-0.27402112
194	0xbf483e6c	-0.7822025
195	0xbef1758c	-0.47159994
196	0xbf252603	-0.64511126
197	0xbea4fd2a	-0.322244
198	0xbf69aca1	-0.91279036
199	0xbf894c63	-1.0726436
200	0x3ea15be4	0.3151542
201	0x3f82e553	1.0226234
202	0xbdaa16fd	-0.08305166
203	0xbfe62979	-1.7981406
204	0x3f3a3fed	0.72753793
205	0x3eb50373	0.35354194
206	0x3f54c98c	0.83120036
207	0x3e108c86	0.14116105
208	0xbfce1bcb	-1.6102232
209	0x3e39b6d3	0.18136148
210	0x3d3326f2	0.043738313
211	0x3f5b9c39	0.8578525
212	0x3f131821	0.5745869
213	0xbfb5dbb7	-1.4207677
214	0x3d84fcd8	0.064935386
215	0xbdb6eec4	-0.0893226
216	0x3fab2e19	1.3373443
217	0x3e881848	0.26581025
218	0xbfb192bd	-1.3872906
219	0xbd8e4c30	-0.06948125
220	0xbee14910	-0.44001055
221	0x3fc60960	1.5471611
222	0xbe677fa4	-0.22607285
223	0xbfcea877	-1.6145161
224	0x3f0fc58c	0.5616081
225	0x3f32931a	0.6975571
226	0x3eba27d0	0.363585
227	0x3fffaa46	1.9973838
228	0x3ffe3d46	1.9862449
229	0x3eb91d5b	0.3615521
230	0x3f127899	0.5721527
231	0x3edcb490	0.43106508
232	0x3fdd5b20	1.7293434
233	0x4009e37f	2.1545103
234	0x3f4b479e	0.79406154
235	0x3f47e723	0.7808706
236	0x3ee29ea5	0.4426166
237	0x3f9b42b0	1.2129726
238	0x401873c1	2.382065
239	0x3fa616b6	1.2975681
240	0x3f646576	0.8921732
241	0xbdde1370	-0.10843551
242	0x3ef76e06	0.4832613
243	0x40068ad5	2.1022236
244	0x3fa31be2	1.2742884
245	0x3f298c3d	0.6622961
246	0xbec8b1ac	-0.39198053
247	0x3e037be4	0.1284023
248	0x3fdbc4ed	1.7169472
249	0x3f418124	0.7558768
250	0xbe7b80b8	-0.24560821
251	0x3fc6715d	1.5503346
252	0x3e42a7da	0.19009343
253	0x3f2a88bd	0.66614896
254	0x3e5ce210	0.21570611
255	0x3e0d3332	0.1378906

resmoduleA.conv2.weight f4 [32, 32, 5, 1]
0	0xbda7f5c0	-0.0820117
1	0x3e3a8eda	0.18218556
2	0x3f31241b	0.6919572
3	0x3dfccff3	0.12344351
4	0xbf5835b1	-0.84456927
5	0x3ea9119f	0.33021256
6	0x3effd370	0.49966002
7	0xbe89e3fe	-0.26931757
8	0x3e2f9a38	0.17148674
9	0xbfeac1a0	-1.834034
10	0xbe911644	-0.283373
11	0x3f2d40fe	0.67677295
12	0x3f284aef	0.6573934
13	0x3d876c1e	0.066124186
14	0x3e6c9b68	0.23106158
15	0x3fe7f794	1.812243
16	0x3eca11b4	0.3946663
17	0x3f2bf05f	0.6716365
18	0x3f87d936	1.0613163
19	0x3f83ff8e	1.0312364
20	0x3f4378e8	0.76356363
21	0x3beddac4	0.007258745
22	0x3d4b0922	0.049569257
23	0xbfce40c0	-1.611351
24	0xc00fb479	-2.2453902
25	0xbf973c72	-1.1815321
26	0xbefe12c4	-0.49623692
27	0xbec23289	-0.3792918
28	0x3e83b117	0.25721046
29	0x3fd10289	1.6328899
30	0x3fbf7509	1.4957591
31	0x3d1723df	0.036899444
32	0x3f787009	0.9704595
33	0x40228d80	2.5398865
34	0x4011e098	2.279333
35	0xbf21503f	-0.6301307
36	0xbf35fc5f	-0.7108821
37	0xbe946ae4	-0.289878
38	0xbf12cbfe	-0.5734252
39	0xbf924052	-1.1425879
40	0x3f06a811	0.526002
41	0x3f0512ae	0.5198163
42	0x3ee39672	0.44450718
43	0x3ee147b6	0.44000024
44	0xbe169042	-0.14703467
45	0x3f67438d	0.9033745
46	0x3efe8031	0.49707177
47	0x3f1d60ea	0.61476004
48	0x3e74742d	0.23872443
49	0xbd312990	-0.043252528
50	0x3ed3c8a0	0.41364002
51	0x3d84e983	0.06489851
52	0x3f0e5f4b	0.55614156
53	0x3e72faf2	0.2372854
54	0x3f288d11	0.6584025
55	0x3cebda25	0.028790543
56	0x3da57dc7	0.08080631
57	0x3f5bfa0a	0.85928404
58	0x3f12f608	0.57406664
59	0xbe8cf5b6	-0.27531213
60	0xbec45286	-0.3834421
61	0x3d3024ea	0.043003954
62	0x3e89dabe	0.269247
63	0xbd83b010	-0.06430066
64	0xbf2ff4b0	-0.6873274
65	0x3ea04451	0.3130212
66	0x3dbed247	0.09317451
67	0x3f87acab	1.0599569
68	0x3f68d257	0.90945953
69	0x3f716cee	0.9430684
70	0x3f3ff6a3	0.7498571
71	0x3ee081bf	0.43848988
72	0x3c20d0fe	0.009815453
73	0x3e421f84	0.18957335
74	0xbf4f74e0	-0.8103771
75	0x3e8fa915	0.28058687
76	0xbe1eadad	-0.1549594
77	0x3f982417	1.1886014
78	0x3df8cbbb	0.121482335
79	0x3f1d8d8e	0.6154412
80	0xbf792282	-0.9731828
81	0x3e67bde9	0.22631039
82	0xbe9329d6	-0.28742856
83	0xbf644b3f	-0.89177316
84	0xbf197140	-0.5993843
85	0x3eb00716	0.34380406
86	0x3eb98b08	0.36238885
87	0xbf87e219	-1.0615875
88	0xbfbfe127	-1.4990586
89	0xbf9ba427	-1.215947
90	0xbe32e722	-0.17470983
91	0xbf4958d9	-0.78651196
92	0x3f2b853a	0.6700016
93	0x3e191452	0.14949158
94	0xbeed8c64	-0.46396172
95	0xbfa319b3	-1.2742218
96	0xbfce2555	-1.6105143
97	0xbfc9d13b	-1.5766977
98	0xbefd262a	-0.4944318
99	0x3e64f01b	0.22357218
100	0x3eb84b12	0.35994774
101	0xbd0ea6fb	-0.034827214
102	0x3f5d4415	0.8643201
103	0x3f041872	0.515998
104	0x3f52faa9	0.8241373
105	0x3f09695f	0.5367641
106	0xbe186a9f	-0.14884423
107	0x3e565b15	0.20933183
108	0x3ed71ba8	0.42013288
109	0x3f4d5789	0.80211693
110	0xc00cbe50	-2.1991158
111	0xbf5d9588	-0.8655629
112	0xbf5f9b09	-0.8734594
113	0xbef47685	-0.47746673
114	0xbfda61f8	-1.7061148
115	0x3ddb6d6c	0.1071423
116	0x3f5ac88a	0.8546225
117	0xbf4b8e34	-0.7951386
118	0xc00022d1	-2.002125
119	0xc046b355	-3.1046956
120	0x3f3c7f05	0.73631316
121	0x3ec96174	0.39332163
122	0x3f1f6f1c	0.62278914
123	0xbd84f338	-0.06491703
124	0xbe949c17	-0.29025337
125	0xbf708f43	-0.939686
126	0xbf445a9d	-0.76700765
127	0xbf6e03c7	-0.92974514
128	0xbf38d83b	-0.7220494
129	0xbfe32f01	-1.774872
130	0xbe2a4878	-0.16629207
131	0xbe2e3087	-0.17010699
132	0x3e2f2af1	0.17106225
133	0x3e49fc7e	0.19725224
134	0xbcbc745e	-0.023004707
135	0xbf288ef3	-0.65843123
136	0xbf37201b	-0.71533364
137	0xbedf74bf	-0.43643758
138	0xbe5b8d21	-0.21440555
139	0xbf267f63	-0.65038127
140	0xbefa180b	-0.48846468
141	0xbf4a9d56	-0.79146326
142	0xbfafec8c	-1.3744063
143	0xbff4b930	-1.9119015
144	0xbfc7ce58	-1.5609846
145	0x3da38417	0.079841785
146	0xbf577db0	-0.8417616
147	0xbe9b739e	-0.30361646
148	0xbf032b48	-0.51237917
149	0xbf754ff1	-0.95825106
150	0x3f89d875	1.0769182
151	0xbf1c8e1b	-0.61154336
152	0xbee3d217	-0.44496223
153	0xbf2a9cd7	-0.6664557
154	0x3ef16891	0.4715009
155	0x3e8bf8f0	0.27338362
156	0x3f1f4af4	0.62223744
157	0x3f84ab91	1.0364858
158	0x3fa238c6	1.2673576
159	0x3f32eb4a	0.6989027
160	0xbfc18264	-1.5117917
161	0xbf3a8d49	-0.72871834
162	0x3e81b174	0.25330698
163	0xbf2bf513	-0.6717083
164	0xbfe470cf	-1.7846926
165	0xbd90f845	-0.07078604
166	0xc01814a4	-2.3762598
167	0x3fb46cc9	1.4095699
168	0x3f5bb79f	0.8582706
169	0xbe33e390	-0.17567277
170	0xbf3d300e	-0.7390145
171	0x3e3222df	0.17396115
172	0xbeb99f32	-0.3625427
173	0xbe04480b	-0.12918107
174	0xbf0dfcd9	-0.5546394
175	0x3e9f8a84	0.31160367
176	0x3f427893	0.7596523
177	0x3f1e3463	0.61798686
178	0x3f19d017	0.60083145
179	0x3e91a60f	0.28447005
180	0xbec79e88	-0.38988137
181	0xbe2434f2	-0.16035822
182	0xbe578b04	-0.21049124
183	0x3e86514f	0.2623391
184	0x3f9808fd	1.1877743
185	0xc006084e	-2.0942569
186	0xbf68b749	-0.9090467
187	0x3fa02107	1.2510079
188	0x3fc65f88	1.5497904
189	0x3f2ab440	0.6668129
190	0xbed987ba	-0.42486364
191	0xbf2927fc	-0.66076636
192	0xbf32cd82	-0.6984483
193	0xbfc64887	-1.5490884
194	0xbfe1f3db	-1.7652544
195	0xbea94538	-0.33060622
196	0x3cb089eb	0.02155014
197	0x3da1fa92	0.079091206
198	0x3ca2a474	0.019853808
199	0xbd8868df	-0.066606276
200	0xbfec5f60	-1.8466606
201	0xbfa85e5d	-1.3153797
202	0xbee905c7	-0.4551222
203	0xbfb760f9	-1.4326469
204	0xbf3c5ff5	-0.7358392
205	0x3b8a0417	0.0042119133
206	0x3e1958d7	0.14975296
207	0x3f405459	0.75128704
208	0x3f78b888	0.9715657
209	0x3f36bcbd	0.7138174
210	0x400d0fa4	2.2040796
211	0x3ff770d5	1.9331309
212	0x3ed0881f	0.40728852
213	0x3f036bc0	0.5133629
214	0x3f5268d1	0.8219119
215	0xbefa59a2	-0.4889651
216	0xbf3031b4	-0.6882584
217	0xbd459529	-0.048237953
218	0xbe1f9331	-0.15583493
219	0xbf9c4dee	-1.2211282
220	0x3d737c49	0.0594447
221	0x3f1f5c41	0.62250143
222	0x3e879b63	0.26485738
223	0x3c41a1d2	0.011818366
224	0xbe8ac524	-0.2710353
225	0xbf84d4e1	-1.0377465
226	0xbf03c7fd	-0.5147703
227	0x3f2f3d9b	0.6845338
228	0xbc2f9bce	-0.010718299
229	0xbf659256	-0.89676416
230	0x3ecf287a	0.4046057
231	0x3f35ed91	0.7106562
232	0x3eb2fd72	0.34958988
233	0x3ef9d996	0.48798817
234	0x3f0b20d4	0.54346967
235	0x401413d9	2.3137114
236	0x3f802c14	1.0013452
237	0x3ff2b1dd	1.896053
238	0xbefeec64	-0.49789727
239	0xbfbf93da	-1.4966996
240	0x3f366dc9	0.7126127
241	0xbf9b0d77	-1.2113484
242	0x3dc13fd1	0.09436
243	0xbf4b8a02	-0.7950746
244	0x3f8381ed	1.0274025
245	0xbf01c3a2	-0.50689137
246	0x3dfbcae4	0.12294558
247	0xbfd032ca	-1.62655
248	0x3ebb09c6	0.36530894
249	0x3f8e14dd	1.1100117
250	0xbf436321	-0.76323134
251	0xbfc246d8	-1.517787
252	0xbf44fe2f	-0.76950353
253	0xbedf553f	-0.43619725
254	0x3dc8eb8e	0.098105535
255	0xbf0a211b	-0.53956765

resmoduleA.norm1.weight f4 [32]
0	0x3fc1c011	1.5136739
1	0x400df669	2.2181647
2	0x3fb45004	1.4086919
3	0x3f934390	1.1504993
4	0x3fcb20a8	1.5869341
5	0x4018f8e0	2.3901901
6	0x3fd5777e	1.6677091
7	0x3f9a25d5	1.2042795
8	0x3f9aa97c	1.2082973
9	0x3fb4f709	1.4137889
10	0x3f688d66	0.90840757
11	0x3fb403eb	1.4063696
12	0x3fda78f9	1.7068168
13	0x3fcc688f	1.5969409
14	0x3fb6f577	1.429366
15	0x3ffd7129	1.9800159
16	0x4008a3a3	2.1349876
17	0x401a6ace	2.4127688
18	0x3fb00242	1.3750689
19	0x3fc79b3e	1.5594251
20	0x3fc51a89	1.5398723
21	0x3fcd4518	1.6036711
22	0x3fbc14e8	1.469388
23	0x3f8afe47	1.0858849
24	0x3f9ffdec	1.2499366
25	0x3fc037e8	1.5017061
26	0x3fd38a26	1.6526535
27	0x3fb2e7d6	1.3977001
28	0x3fc61ba3	1.5477184
29	0x3fb4cdf2	1.412535
30	0x3fdfbb6a	1.7479069
31	0x3fbc82ea	1.4727452

resmoduleA.norm1.bias f4 [32]
0	0xbf9a88f6	-1.2073047
1	0xbf86379c	-1.0485721
2	0x3edfd038	0.43713546
3	0xbf9ff297	-1.2495908
4	0xbe2843cf	-0.16432117
5	0xbf5cd36e	-0.86260116
6	0xbf1947b6	-0.5987505
7	0xbfa19b37	-1.2625493
8	0xbf0ee66f	-0.55820364
9	0xbf541cfe	-0.8285674
10	0xbd3081a3	-0.04309238
11	0xbf3ee225	-0.7456382
12	0xbf82cdc8	-1.021905
13	0xbf89c379	-1.0762779
14	0xbf624c6c	-0.8839786
15	0xbf3c23bf	-0.73492044
16	0xbfa5bb0e	-1.294771
17	0xbf707995	-0.9393552
18	0xbf5db921	-0.8661061
19	0xbf5a491a	-0.85267794
20	0xbf3d4ae9	-0.7394243
21	0xbd16d822	-0.036827214
22	0xbd135644	-0.03597094
23	0xbdada40f	-0.08478557
24	0xbe820fc1	-0.25402644
25	0xbf0e506f	-0.5559148
26	0x3dda92c5	0.10672525
27	0xbde6f8b6	-0.112779066
28	0xbf4379f1	-0.7635794
29	0xbea30c7d	-0.31845465
30	0xbf66680b	-0.90002507
31	0xbf6163cb	-0.88042897

resmoduleA.norm2.weight f4 [32]
0	0x3f9e9cde	1.2391622
1	0x3f81337e	1.0093839
2	0x3fbf6206	1.4951789
3	0x400c6151	2.1934397
4	0x3ff9c999	1.9514648
5	0x3fb9ab4d	1.4505402
6	0x3fa0786d	1.2536751
7	0x3f5a2848	0.85217714
8	0x3f872f4d	1.056131
9	0x3f85f829	1.0466357
10	0x3f9b667e	1.2140653
11	0x3f9bf11f	1.2182959
12	0x3fe2fdcd	1.7733704
13	0x3fc4ec40	1.5384598
14	0x3f9bbd31	1.2167112
15	0x3fdda1d5	1.7315012
16	0x3f860c7f	1.0472564
17	0x3f4d8254	0.8027699
18	0x3fd4f81a	1.6638215
19	0x3ffc4498	1.9708433
20	0x3f760de8	0.9611497
21	0x3fe8529e	1.8150213
22	0x3f226db3	0.6344864
23	0x3f660b33	0.8986084
24	0x3ffe4852	1.986582
25	0x3fc0541d	1.5025669
26	0x3fad3313	1.3531212
27	0x3f926388	1.1436625
28	0x3fd11826	1.6335495
29	0x3f5acf4b	0.85472554
30	0x3fb06bb1	1.3782865
31	0x3f855d8f	1.0419177

resmoduleA.norm2.bias f4 [32]
0	0xbf306743	-0.68907565
1	0xbf1684a5	-0.5879615
2	0x3d8b9d72	0.0681714
3	0xbf782f16	-0.9694685
4	0xbf99b8fd	-1.2009579
5	0xbf8e6f29	-1.1127673
6	0xbd334a43	-0.043771993
7	0xbed2cfe9	-0.41174248
8	0xbd980288	-0.07422358
9	0xbf7256de	-0.946638
10	0xbf97d068	-1.1860476
11	0xbedb4e38	-0.42833114
12	0xbf17f502	-0.5935823
13	0xbf313bd7	-0.69231933
14	0xbf5693c6	-0.83819234
15	0x3eda0e92	0.4258924
16	0xbea98350	-0.33107996
17	0xbeb717fd	-0.3576049
18	0xbf0bdd66	-0.546347
19	0xbf903442	-1.1265948
20	0xbf15b144	-0.5847361
21	0xbeee6323	-0.4656001
22	0xbe9cd324	-0.30629838
23	0xbea64a72	-0.32478672
24	0xbf75cbf2	-0.9601432
25	0xbf7e7fd5	-0.99413806
26	0xbfcf72d3	-1.6206917
27	0xbf620dc4	-0.88302255
28	0xbfa6a13a	-1.3017952
29	0xbf1b4bd7	-0.606626
30	0xbfa4e734	-1.2883058
31	0xbfcd31ef	-1.6030864

resmoduleB1.conv1.weight f4 [32, 32, 3, 3]
0	0x3eb55fba	0.35424596
1	0xbd073a60	-0.033014655
2	0xc0316711	-2.7719157
3	0x3e6daeb4	0.23211175
4	0xbf033bae	-0.5126294
5	0xc02145a2	-2.519875
6	0x3d015324	0.03157343
7	0xbf0e33e4	-0.5554793
8	0xbff50716	-1.9142787
9	0xbf0fbbff	-0.56146234
10	0x3fa4707f	1.2846831
11	0xbda4f041	-0.08053637
12	0xbf7978bf	-0.9744987
13	0x3f95c278	1.1699972
14	0xbe0707ad	-0.13186522
15	0xbf8e2143	-1.1103901
16	0x3f922882	1.1418612
17	0x3eabcf0c	0.33556402
18	0xc00bf85a	-2.1870332
19	0xbfccb075	-1.599135
20	0x3d67d7e2	0.056602366
21	0xbf978322	-1.1836894
22	0xbf39f120	-0.7263355
23	0x3e053977	0.13010202
24	0xbe87e635	-0.26542822
25	0xbd98f36a	-0.074683025
26	0x3f295a6f	0.66153616
27	0xbebbc3bb	-0.36672768
28	0x3f752f7b	0.95775574
29	0xbf736f77	-0.95091957
30	0x3e065414	0.13118011
31	0x3fd3d6f7	1.6549977
32	0xbf5ea44d	-0.86969453
33	0x3eef2467	0.4670746
34	0x3f88f7bf	1.0700606
35	0xbee074e6	-0.43839186
36	0xbf1bab30	-0.60808086
37	0xbfc08c7b	-1.5042871
38	0xbeb72a40	-0.35774422
39	0x3ed4c96f	0.41559932
40	0xbf24a1ff	-0.64309686
41	0x3b857782	0.0040730843
42	0x3da67fca	0.081298426
43	0xbf3dd431	-0.74151903
44	0x3e972bc3	0.29525575
45	0xbdf6ac64	-0.120446
46	0xbfe3d31c	-1.77988
47	0x3ebb2f72	0.36559635
48	0xbf299e6d	-0.66257364
49	0xbf9bf4cf	-1.2184085
50	0x3f97dd31	1.1864377
51	0xbec60925	-0.38678852
52	0xc02aa2bb	-2.6661823
53	0x3e11c5d1	0.14235617
54	0x3f7f0f62	0.9963285
55	0x3eaa4ddd	0.3326253
56	0xbfbc5c94	-1.4715753
57	0x3fd8d2c6	1.6939323
58	0x3f6f0e2f	0.9338102
59	0xbfada3b0	-1.3565578
60	0x3fc85f9b	1.5654176
61	0x3f4d3e4d	0.8017319
62	0xbfa36a01	-1.2766725
63	0x3e687d72	0.22704104
64	0xbe6b60d3	-0.22986154
65	0xbea5c7ba	-0.32378942
66	0x3f1419bc	0.5785177
67	0xbe5beb69	-0.2147652
68	0xbe477e65	-0.1948181
69	0x3daf2552	0.0855204
70	0xbf909867	-1.129651
71	0xbf1420b4	-0.578624
72	0xbf40b918	-0.7528243
73	0xbfed509a	-1.8540223
74	0x3e9d5e74	0.30736125
75	0x3f3e9dbc	0.74459434
76	0xbf2ebafe	-0.6825408
77	0x3f7ed3ba	0.9954182
78	0x3ef23158	0.4730327
79	0xbf6eb94f	-0.9325151
80	0x3e9b1d54	0.30295813
81	0x3e85c041	0.2612324
82	0x3e8d60b6	0.27612847
83	0x3e187cc2	0.14891341
84	0x3ee643d4	0.44973624
85	0xbc968f5c	-0.018378906
86	0x3f344f3d	0.7043341
87	0x3e1ae7e5	0.15127523
88	0xbe166716	-0.14687762
89	0x3f400b26	0.7501701
90	0xbde90557	-0.113779716
91	0x3e99872e	0.29985946
92	0xbfe9a68b	-1.825395
93	0xbd282b8b	-0.04105715
94	0x3ec096d7	0.37615082
95	0xbf6514d8	-0.8948493
96	0xbd896c96	-0.06710164
97	0x3f056abd	0.52115995
98	0xbf52e217	-0.82376236
99	0x3fcd7cac	1.6053672
100	0x3f82ae23	1.0209392
101	0xbee96256	-0.45582837
102	0x3f5d7ce1	0.86518675
103	0x3fb2d55f	1.3971366
104	0xbf11eba3	-0.5700018
105	0x3f07dbe3	0.53069896
106	0x3f8d40d8	1.1035414
107	0xbf46f502	-0.777176
108	0x3f4d9fc7	0.80321926
109	0xbeea94bc	-0.458166
110	0xbe43ee86	-0.19133958
111	0x3f8aad9e	1.0834234
112	0xbe837b02	-0.25679785
113	0x3f0f1ea3	0.5590612
114	0x3e935936	0.28779
115	0xbd83eaf2	-0.06441297
116	0x3de212ce	0.11038743
117	0x3d0091af	0.031388935
118	0xbf410fa6	-0.754145
119	0xbfac2505	-1.3448797
120	0x3fb9760f	1.4489154
121	0xbe64d30f	-0.22346137
122	0xbf4754a8	-0.7786355
123	0x3fddce93	1.7328666
124	0xbf33eff8	-0.7028804
125	0xbef0591f	-0.46942994
126	0x3ddfe08f	0.10931503
127	0xbfe22ec4	-1.7670522
128	0x3e1a994e	0.15097544
129	0x3f0edbaa	0.5580393
130	0xbf597346	-0.8494152
131	0xbd6d4a01	-0.057931904
132	0x3ef81203	0.48451242
133	0x3d418dff	0.04725456
134	0x3f043ae7	0.5165238
135	0x3e9aec7e	0.30258554
136	0xbeb8e6d2	-0.36113602
137	0xbdb2045b	-0.08692237
138	0x3e7889b3	0.24271278
139	0xbdeee1ec	-0.11664185
140	0x3f0f51fa	0.5598446
141	0xbf11fe50	-0.57028675
142	0xbf0902a0	-0.5351963
143	0xbda89d1d	-0.08233092
144	0xbf45b061	-0.7722226
145	0xbfd2df28	-1.6474352
146	0xbe97f5dd	-0.29679766
147	0x3f046227	0.5171227
148	0xbedec304	-0.4350816
149	0xbe966571	-0.2937427
150	0x3f8f1e28	1.1181078
151	0xbe14c817	-0.14529453
152	0xbf11290b	-0.5670325
153	0xbea8188a	-0.32831222
154	0xbf192283	-0.59818286
155	0x3f0e2c42	0.5553628
156	0xbe252efa	-0.16131201
157	0xbef8c2d0	-0.4858613
158	0x3f997208	1.1987925
159	0xbe15e753	-0.14639024
160	0xbe91f7f8	-0.28509498
161	0x3fbba840	1.4660721
162	0x3f2e8103	0.68165606
163	0xbf49c27d	-0.7881239
164	0xbefc7b62	-0.49312884
165	0x3f201cf7	0.62544197
166	0x3f97181a	1.180423
167	0xbbea314e	-0.007146991
168	0x3f905c26	1.1278121
169	0x3f668294	0.90042996
170	0x3e0a2d4d	0.13493843
171	0xbe28a061	-0.1646743
172	0xbf8f4cae	-1.1195276
173	0x3e0cf6cf	0.13766025
174	0xbecc0173	-0.39844856
175	0x3e8edbd2	0.27902085
176	0x3f1b16cd	0.60581666
177	0xbecc7f0a	-0.39940673
178	0xbf15daa8	-0.5853677
179	0x3e814e23	0.25254926
180	0xbdac8094	-0.08422962
181	0xbf4faf33	-0.8112671
182	0xbf88b736	-1.0680912
183	0x3ee0e5bb	0.4392527
184	0xbfc2354d	-1.5172516
185	0xbf9e2225	-1.235417
186	0x3ed983a8	0.42483258
187	0xbff61b1a	-1.9227021
188	0xbfb865d9	-1.4406081
189	0xbf78a897	-0.9713225
190	0xc009a384	-2.1506052
191	0xbf97ddad	-1.1864525
192	0x3b6bac95	0.0035961021
193	0xbf9ae552	-1.2101233
194	0xbf007a72	-0.50186837
195	0x3e2a10ae	0.16607925
196	0xbfa0b8cc	-1.2556396
197	0xbe6a8e43	-0.22905831
198	0xbfb361fe	-1.401428
199	0xbecf0137	-0.40430614
200	0xbed963e5	-0.42459026
201	0xbfa67299	-1.3003722
202	0xbf460b98	-0.7736144
203	0xbe2a67dc	-0.16641182
204	0xbfadfd29	-1.3592883
205	0xbf72f6d9	-0.9490791
206	0xbd9d7fcf	-0.07690393
207	0x3ed94f6b	0.42443404
208	0x3f894441	1.0723954
209	0x3bfa9c2f	0.007648013
210	0x3f1337db	0.57507104
211	0x3e997a29	0.29976013
212	0xbd5d8d69	-0.054089937
213	0x3f0bffef	0.546874
214	0xbe07780a	-0.13229385
215	0xbe92c446	-0.2866537
216	0xbfe7b084	-1.8100743
217	0xbed2b3d5	-0.41152826
218	0x3f81378e	1.0095079
219	0xbf8c0bed	-1.094114
220	0xbe621d56	-0.22081503
221	0x3fc2f113	1.522982
222	0xbfaa18e8	-1.3288851
223	0xbf3c1716	-0.73472726
224	0x3fc83da4	1.5643811
225	0xbfd4b0b6	-1.6616428
226	0xbf1a29b9	-0.60219914
227	0x3fd6a0a3	1.6767772
228	0xbfd7ba5c	-1.6853747
229	0xbf1ba3c9	-0.6079679
230	0x3fa1bdb6	1.263602
231	0xc01b8a8a	-2.4303308
232	0xbf7aa093	-0.97901267
233	0x3fa6bc15	1.3026148
234	0xbe552ba7	-0.20817433
235	0x40483ea5	3.1288235
236	0xbf102bab	-0.5631663
237	0x3d4b68c8	0.049660474
238	0x403f6923	2.990792
239	0xbf00e427	-0.5034813
240	0xbe6fa9e3	-0.2340465
241	0x4013acb1	2.3074152
242	0xbeafa5cd	-0.34306183
243	0x3f611fe8	0.8793931
244	0xbd515ab5	-0.051111896
245	0xbfd7619c	-1.6826663
246	0x3f75162a	0.95736945
247	0xbe4a4cbe	-0.19755837
248	0xbf346975	-0.70473415
249	0x3f06e0f4	0.52687
250	0xbd964836	-0.07337992
251	0xbed9c9f3	-0.42536888
252	0xbf91c6d3	-1.1388801
253	0xbfac0abc	-1.3440776
254	0xbe97c0ad	-0.29639187
255	0xbd104117	-0.035218325

resmoduleB1.conv2.weight f4 [32, 32, 5, 1]
0	0xbf3ec923	-0.7452566
1	0xbe41a76b	-0.18911521
2	0xbd466276	-0.048433743
3	0xbc2f70ff	-0.010708093
4	0xbf120df4	-0.5705254
5	0x3f9ec622	1.2404215
6	0x40103a6f	2.2535665
7	0xbef8ab77	-0.48568317
8	0x3e9f21b1	0.31080392
9	0x3f54b7d1	0.8309298
10	0x3f4add2b	0.79243726
11	0x3f3380a3	0.7011816
12	0x3e885b8e	0.2663235
13	0xbdf3412a	-0.118776634
14	0xbf066eb8	-0.52512693
15	0x3f9a1bea	1.2039769
16	0xbf814ff1	-1.0102521
17	0xbef7a2e3	-0.4836646
18	0xbf29a6f8	-0.662704
19	0xbf60c32d	-0.87797815
20	0xbf2fdc50	-0.68695545
21	0xbe2b03f4	-0.16700727
22	0x3f15856d	0.58406717
23	0xbe59d613	-0.21273069
24	0xbfe5ef75	-1.7963701
25	0x3fdb044f	1.711069
26	0x3f96355d	1.1735035
27	0x3f60c7e7	0.87805027
28	0x3f8ca6c0	1.0988388
29	0x3f87a28c	1.059648
30	0x3f2a76de	0.66587627
31	0x3d0358df	0.032067176
32	0x3ead2f22	0.33825022
33	0xbf45c2a7	-0.7725014
34	0xbc8fd3b6	-0.017557006
35	0xc03961e7	-2.8966005
36	0xbfd20ac8	-1.640954
37	0xbf55c8fe	-0.83509815
38	0xbe997bb2	-0.29977185
39	0x3f6ef9e6	0.93350065
40	0x3fabc07e	1.3418119
41	0x3f327d88	0.69722795
42	0xbd888f54	-0.06667963
43	0xbeaebaf0	-0.34126997
44	0xbfbdfe8b	-1.4843305
45	0xbf213fab	-0.62987775
46	0xbe76c625	-0.24099024
47	0xbe964698	-0.29350734
48	0xbed9bc25	-0.42526355
49	0xc0096299	-2.146643
50	0xbfa5bd99	-1.2948486
51	0xbee5fe69	-0.44920662
52	0x3d202858	0.039100975
53	0xbf92675c	-1.1437793
54	0xbfaa7b3f	-1.3318862
55	0x3f50f5d2	0.8162509
56	0x3f700131	0.9375182
57	0x3d677504	0.05650808
58	0xbf768639	-0.9629856
59	0xbf4720cd	-0.77784425
60	0xbeed8a92	-0.46394783
61	0xbf20f972	-0.62880623
62	0x3f873e10	1.0565815
63	0x3f8d3f15	1.1034876
64	0x3f2090f8	0.62721205
65	0xbf89b947	-1.0759667
66	0xbf6e8830	-0.93176556
67	0xbf8865d5	-1.0656077
68	0xbf88b19e	-1.0679204
69	0xbfafe39e	-1.3741338
70	0x3dbf1bb8	0.09331459
71	0xbec707ac	-0.3887304
72	0xbf244f07	-0.64183086
73	0xbf35d2f4	-0.71025014
74	0x3eed60c7	0.46362898
75	0x3ed5f182	0.41785818
76	0x3e50e337	0.20399176
77	0x3f215e9c	0.6303499
78	0x3f0d7b51	0.5526629
79	0x3f2d48b1	0.67689043
80	0xbf16a32e	-0.5884274
81	0x3ee447b0	0.44585943
82	0xbe81ed79	-0.2537649
83	0xbf27d756	-0.6556295
84	0xbf9d9039	-1.2309638
85	0xbe7c595d	-0.24643464
86	0xbf1bdc90	-0.60883427
87	0xbe822a8c	-0.25423086
88	0x3e8fe810	0.28106737
89	0xbf3668ed	-0.71253854
90	0xbe67444c	-0.22584647
91	0x3ec4ccb4	0.38437426
92	0xbdf8dc4c	-0.12151393
93	0x3efb6422	0.49099833
94	0xbf75e7b6	-0.9605669
95	0x3f287fed	0.658202
96	0x3f71c72a	0.94444525
97	0x3fb2873d	1.3947521
98	0x3fe3922d	1.7778984
99	0x3eda84f6	0.42679566
100	0xbea4475b	-0.3208569
101	0x3fc594df	1.5436057
102	0x3f680f42	0.9064828
103	0x3f1f1c74	0.6215279
104	0x400c5f14	2.193303
105	0x3e614d69	0.22002186
106	0xbe5c9b3e	-0.21543595
107	0x3eeb56ba	0.45964605
108	0x3e5db333	0.2165039
109	0x3f6f12d8	0.9338813
110	0xbe1f6e5d	-0.15569444
111	0xbc629fcb	-0.013832043
112	0xbfc5ae35	-1.5443789
113	0xbf2a1b23	-0.6644766
114	0xbecb1f0d	-0.39672127
115	0x3f208d23	0.6271536
116	0x3f7bc5e7	0.9834885
117	0x3f550379	0.83208424
118	0x3eee687c	0.4656409
119	0xbfc34159	-1.5254318
120	0x3ef03aa9	0.46919754
121	0x3f8f50bc	1.1196513
122	0x3eea7e84	0.4579965
123	0x3d47eb04	0.048808113
124	0x3f9f7b5e	1.2459524
125	0x3fbcc360	1.4747124
126	0x3f6daab6	0.9283861
127	0xbe4a8b10	-0.1977961
128	0xbf5789a8	-0.8419442
129	0xbff9acc9	-1.9505855
130	0xbfd2388d	-1.6423508
131	0xbf8a5022	-1.0805705
132	0xbf3f526c	-0.7473514
133	0xbf3a2388	-0.72710466
134	0xc0338d2b	-2.8054912
135	0xbfedac36	-1.856818
136	0xbf6e92f3	-0.93192977
137	0x3e54a82b	0.20767276
138	0x3c783413	0.015149134
139	0xbf8e3914	-1.1111169
140	0xbff1e7d8	-1.8898878
141	0xbf440024	-0.76562715
142	0xbcea6fce	-0.028617766
143	0xbfcc29cd	-1.5950257
144	0xbebb98e0	-0.36640072
145	0x3fdb0f22	1.7113993
146	0x3f8a0028	1.0781298
147	0x3d160a74	0.036631063
148	0xbeccef83	-0.40026483
149	0xbf85d6a5	-1.0456129
150	0xbf34ce8e	-0.7062768
151	0xbee32233	-0.4436203
152	0x3ec01e9d	0.37523356
153	0x3f6aa39e	0.9165591
154	0x3f7b8516	0.9824995
155	0xbeade24e	-0.3396172
156	0xbed54789	-0.4165614
157	0xc002b52f	-2.0423086
158	0xc01d6803	-2.4594734
159	0xbfb85ce2	-1.4403346
160	0x3e896732	0.26836544
161	0xbd87d594	-0.06632534
162	0xbf18f364	-0.59746385
163	0xbeb91950	-0.36152124
164	0xbe78d17f	-0.24298666
165	0x3f0acd05	0.54219085
166	0x3c7854ba	0.015156919
167	0xbe173a3b	-0.14768307
168	0xbeeb8361	-0.45998672
169	0x3e4b23f8	0.1983794
170	0xbe0341cd	-0.1281807
171	0xbe295b34	-0.16538697
172	0xbed5920e	-0.41712993
173	0xbedbc126	-0.42920798
174	0xbe6292e2	-0.22126344
175	0x3fa44273	1.2832779
176	0x3f139a38	0.57657194
177	0x3e49f126	0.19720897
178	0x3f5bd7fb	0.85876435
179	0x3f2b48e5	0.66908103
180	0x3e693b60	0.22776556
181	0x3eaa5aec	0.33272493
182	0xbd3d81f4	-0.04626651
183	0xbe51aff4	-0.20477277
184	0xbf2ad7e6	-0.66735685
185	0xbfe8a251	-1.8174535
186	0xbf9708a6	-1.1799514
187	0xbf4670de	-0.7751597
188	0xbe2f160d	-0.17098255
189	0x3e736e48	0.23772538
190	0xbf615557	-0.88020843
191	0xbf730477	-0.9492869
192	0x3d0d210f	0.034455355
193	0xbde6a829	-0.11262543
194	0xbedc6625	-0.4304668
195	0x3f3fc147	0.7490429
196	0x3e78bfa8	0.24291861
197	0x3e9ea9b3	0.30988845
198	0xbf458842	-0.7716104
199	0xbf6b2c59	-0.91864544
200	0x3f358109	0.7090002
201	0x3ec7f7ac	0.39056146
202	0x3e836219	0.2566078
203	0x3f0c31eb	0.5476367
204	0x3e87a52a	0.26493198
205	0xc025669f	-2.5843885
206	0xc02a6826	-2.6626067
207	0xbfcb46d5	-1.5880991
208	0xbfc12c84	-1.509171
209	0xbfc69966	-1.5515563
210	0xbfaae92f	-1.3352412
211	0xbfaadfc2	-1.3349535
212	0xbf5b086a	-0.85559714
213	0xbf9e4ca1	-1.2367135
214	0xbe876308	-0.26442742
215	0xbecc7a92	-0.39937264
216	0xbfa80f16	-1.3129604
217	0x3dc184af	0.094491355
218	0xbee04c37	-0.43808147
219	0xbe830b34	-0.25594485
220	0xbfe9a7aa	-1.8254292
221	0xbf08de88	-0.53464556
222	0xbeabae3f	-0.33531377
223	0x3ed60ad3	0.41805133
224	0xbf9700d3	-1.1797127
225	0x3ecfd65e	0.40593237
226	0x3f09c2d8	0.5381293
227	0x3f10b780	0.5653
228	0x3eeec210	0.46632433
229	0x3eb767dd	0.3582143
230	0x3fc1ba15	1.5134913
231	0x3f8030ff	1.0014952
232	0x3f389627	0.72104114
233	0x3eb1b561	0.34708694
234	0x3f07f283	0.5310442
235	0xbe6431ed	-0.2228467
236	0xbcf030e3	-0.029320186
237	0xbebc54f6	-0.3678357
238	0xbe93c0f6	-0.28858155
239	0xbeb2c796	-0.34917897
240	0xbf840a22	-1.0315592
241	0xbfa3d293	-1.2798637
242	0xbf23a120	-0.6391773
243	0x3e4d54c9	0.20051874
244	0xbedb1bc7	-0.4279463
245	0xbf568fd3	-0.8381321
246	0xbf0c1873	-0.54724807
247	0xbea666cb	-0.325003
248	0xbecbc646	-0.39799708
249	0x3eb90d29	0.36142853
250	0xbf538c07	-0.8263554
251	0xbf8fb651	-1.1227514
252	0xbf5f64e2	-0.8726331
253	0xbf9bc587	-1.2169656
254	0xbeec00a7	-0.46094248
255	0xbfd7bf34	-1.6855226

resmoduleB1.norm1.weight f4 [32]
0	0x3fc820b9	1.5634986
1	0x3fa7526e	1.307203
2	0x3f816d92	1.0111563
3	0x3fd225d7	1.6417798
4	0x3fb98dc2	1.4496386
5	0x3fce5664	1.6120114
6	0x3fe10249	1.7578822
7	0x3f9eeab2	1.2415373
8	0x3fb3dc5e	1.4051626
9	0x3fdba6d1	1.7160283
10	0x3fbbc466	1.4669311
11	0x3fa09e97	1.2548398
12	0x3fcd2730	1.6027584
13	0x3fbfcc10	1.498415
14	0x3fb42541	1.4073869
15	0x3f98bea8	1.1933184
16	0x3ff74772	1.9318678
17	0x3fb6e9c8	1.4290094
18	0x3fbdcf3d	1.4828869
19	0x3fde8576	1.7384479
20	0x3fd99efa	1.7001641
21	0x3fa0741b	1.2535433
22	0x3fdbe4d2	1.7179205
23	0x3fb8dc4b	1.4442228
24	0x3fcaf4bf	1.585594
25	0x3fab27fa	1.3371575
26	0x3fb43b49	1.4080592
27	0x400f9987	2.2437456
28	0x3ff06578	1.8780966
29	0x3f842f0b	1.0326856
30	0x3f9b0d95	1.211352
31	0x3fb72095	1.4306818

resmoduleB1.norm1.bias f4 [32]
0	0xbf817289	-1.0113078
1	0xbf13ee3b	-0.57785386
2	0xbf1a20bc	-0.602062
3	0xbf800a8c	-1.0003219
4	0xbfb02966	-1.3762634
5	0xbf9c7380	-1.2222748
6	0xbe95d2e5	-0.29262462
7	0xbecd8029	-0.4013684
8	0xbf8ab9ee	-1.0837991
9	0xbf771864	-0.9652159
10	0xbfa7e884	-1.3117833
11	0xbeec3568	-0.46134496
12	0x3d4f56d4	0.050619915
13	0xbf309f78	-0.6899333
14	0xbfa9a21a	-1.3252594
15	0x3f1c081b	0.6094987
16	0x3dd276d6	0.102765724
17	0xbf93c955	-1.1545817
18	0xbe4baf7d	-0.19891162
19	0xbf85e725	-1.0461165
20	0xbf9ce85e	-1.2258413
21	0xbf7f225c	-0.99661803
22	0xbf688f9a	-0.9084412
23	0xbf929d35	-1.1454226
24	0xbf94622f	-1.1592463
25	0xbf9a8c21	-1.2074014
26	0xbf95c019	-1.1699249
27	0xbf1882e8	-0.5957475
28	0xbf209eef	-0.62742513
29	0xbeaa9a5d	-0.33320895
30	0xbea66fa8	-0.32507062
31	0xbfacdc02	-1.3504641

resmoduleB1.norm2.weight f4 [32]
0	0x3f5e643a	0.86871684
1	0x3f9b4129	1.212926
2	0x3fbfe9ae	1.4993188
3	0x3fed718d	1.8550278
4	0x3fc9bf47	1.5761498
5	0x3f95df78	1.1708822
6	0x3faabfbc	1.3339763
7	0x3f302385	0.688042
8	0x3f7ef02b	0.9958522
9	0x3f6753c0	0.9036217
10	0x3f51c98c	0.8194816
11	0x3fb11c71	1.3836805
12	0x401a0b4d	2.4069397
13	0x3f1bd94a	0.6087843
14	0x3fcde6f0	1.6086102
15	0x3f182abe	0.5944022
16	0x3fc50a3f	1.5393752
17	0x3ff69bf3	1.9266342
18	0x3f95a943	1.169228
19	0x3fa8c886	1.3186195
20	0x400c1d26	2.189279
21	0x3fd8eafc	1.6946712
22	0x3fa343f9	1.2755119
23	0x3f63cc0f	0.88983244
24	0x3fb3f4a5	1.4059035
25	0x3fa47782	1.2848971
26	0x3fca706c	1.5815558
27	0x3f9abc4a	1.2088711
28	0x3fee59c7	1.8621148
29	0x3f4f81ae	0.8105725
30	0x3fd36a84	1.6516881
31	0x3f9a1cb5	1.2040011

resmoduleB1.norm2.bias f4 [32]
0	0xbf7167d8	-0.9429908
1	0xbf3d97fd	-0.7406004
2	0xbe8c7b9d	-0.2743806
3	0xbf6ee03f	-0.9331092
4	0xbf8f7ed2	-1.1210577
5	0xbf85cb98	-1.0452757
6	0xbee447d3	-0.44586048
7	0xbeb5f37a	-0.3553732
8	0xbf40b048	-0.75268984
9	0xbfbe929d	-1.4888493
10	0xbf761439	-0.9612461
11	0xbf99c8e2	-1.201443
12	0xbf830d35	-1.0238405
13	0xbf90c31d	-1.1309544
14	0xbf6bae99	-0.9206329
15	0xbed9bf84	-0.42528927
16	0xbe6a2385	-0.22865112
17	0xbf4e74df	-0.8064708
18	0xbfbba027	-1.465825
19	0xbf96f361	-1.1793023
20	0xbf3a5bee	-0.72796524
21	0xbf443839	-0.7664829
22	0xbf5d91b1	-0.8655043
23	0xbf51260b	-0.81698674
24	0xbf32299c	-0.6959474
25	0xbf48f44f	-0.78497785
26	0xbfb1a4d7	-1.387843
27	0xbfcdc3ec	-1.6075416
28	0xbf714354	-0.9424336
29	0xbf3d8a69	-0.7403932
30	0xbf5a24c3	-0.85212344
31	0xbf886dbc	-1.0658488

resmoduleB2.conv1.weight f4 [32, 32, 3, 3]
0	0x3e91b1dc	0.28456008
1	0xbfa90472	-1.3204482
2	0xbf454754	-0.77061963
3	0x3ca37ff0	0.019958466
4	0xbfa2beb6	-1.271445
5	0xbf091993	-0.5355465
6	0xbc14355d	-0.009045926
7	0xbfb030be	-1.3764875
8	0xbec6938d	-0.38784447
9	0xbf0149e6	-0.50503385
10	0x3ddb9139	0.107210584
11	0xc00c283b	-2.1899555
12	0xbe8ca301	-0.27468112
13	0x3e1d8c02	0.1538544
14	0xbffc4b47	-1.9710473
15	0xbeeac879	-0.45856073
16	0x3e1dd5df	0.15413617
17	0xbffbaa96	-1.9661434
18	0x3e8e02f7	0.27736637
19	0xbee40202	-0.44532782
20	0xbefdd3c5	-0.4957563
21	0x3e4013f4	0.18757612
22	0xbe0468a7	-0.12930547
23	0xbf2e8238	-0.6816745
24	0x3ed13af2	0.40865284
25	0x3efb0631	0.4902816
26	0xbf620c5a	-0.88300097
27	0x3e492034	0.19641191
28	0x3fa9d52c	1.326818
29	0x3e32e7c6	0.17471227
30	0xbc1914f6	-0.009343376
31	0x3f3063d6	0.6890234
32	0xbe42cb93	-0.1902297
33	0xbec53d88	-0.38523507
34	0xbe898f3c	-0.26867092
35	0xbf883423	-1.0640911
36	0xbf9463b4	-1.1592927
37	0xbe49a642	-0.19692329
38	0x3f9e3dec	1.2362647
39	0xbfa1eded	-1.2650734
40	0xbe0f6fd5	-0.14007504
41	0x3f38446f	0.7197942
42	0xbf705a3f	-0.93887705
43	0x3e057d36	0.13036045
44	0x3dc9269a	0.09821816
45	0xc03063db	-2.7560947
46	0x3c0413d3	0.008061367
47	0x3f83297f	1.0247039
48	0xbffd423e	-1.978584
49	0xbea2185b	-0.31659207
50	0x3f791a4c	0.9730575
51	0xbffbac97	-1.9662045
52	0xbf1a8bd4	-0.6036961
53	0x3e95b856	0.292422
54	0x3f2df7c6	0.679562
55	0xbf2da26e	-0.67825973
56	0xbeb1d22f	-0.3473067
57	0x3f460d87	0.7736439
58	0xbeab3ab0	-0.33443213
59	0xbe23bb92	-0.15989521
60	0xbdcc7a1c	-0.09984228
61	0xbecedf4f	-0.40404746
62	0xbf5246c4	-0.8213923
63	0x3e7cd24a	0.24689594
64	0xc0021bd2	-2.032948
65	0x3f27c86d	0.655402
66	0x3e55ac99	0.20866622
67	0xc02eafb4	-2.729474
68	0x3f34f904	0.7069247
69	0x3ea40f50	0.32042933
70	0xc0433bc3	-3.0505226
71	0x3f2fffcf	0.6874971
72	0xbf5ec680	-0.87021637
73	0xbf8b42f8	-1.0879812
74	0x3f4f9929	0.8109308
75	0xbf9f8284	-1.2461705
76	0xbf0b1aa1	-0.5433751
77	0x3f9f6efa	1.2455742
78	0xbfbd0dcc	-1.4769835
79	0xbf07e3cc	-0.53081965
80	0x3fd57e7e	1.6679227
81	0x3e3fcd22	0.18730596
82	0x3e6a0ff7	0.22857653
83	0xbe1c0c5a	-0.15239087
84	0x3d20e41d	0.039280046
85	0x3cc518cc	0.024059676
86	0xbee1555c	-0.44010437
87	0xbda0703d	-0.07833908
88	0xbe8d00c0	-0.27539635
89	0x3e06d082	0.13165477
90	0x3f1d9ee3	0.61570567
91	0xbeaf7f2c	-0.34276712
92	0xbf08284e	-0.531865
93	0x3e9c5fa8	0.3054173
94	0xbeada61d	-0.33915797
95	0xbef4c513	-0.47806606
96	0x3e720191	0.2363341
97	0xbecb438d	-0.39699975
98	0xbd972510	-0.07380116
99	0x3f934793	1.1506218
100	0xbdf5c564	-0.1200054
101	0xbf8b9ee4	-1.0907865
102	0x3f904ec3	1.1274036
103	0x3b6f11aa	0.0036479034
104	0xbf96b36f	-1.1773509
105	0x3f5bd355	0.8586934
106	0xbc3a99fa	-0.01138925
107	0xbf84f07e	-1.0385892
108	0x3fc9bd5f	1.5760916
109	0x3cca3495	0.024683276
110	0x3e967af9	0.29390696
111	0x3f9acc06	1.2093513
112	0x3e9beb90	0.30453157
113	0x3eb78d80	0.35850143
114	0x3f1b3ad5	0.60636646
115	0x3f8a94c3	1.0826648
116	0x3e7c08de	0.24612758
117	0x3fa71f8c	1.3056502
118	0xbf710689	-0.94150597
119	0xbfdde8d8	-1.7336683
120	0x3f871cdd	1.0555683
121	0xbf26c0fa	-0.6513821
122	0xbfe1f430	-1.7652645
123	0x3f04d2b5	0.51884013
124	0xbf7c824f	-0.98636335
125	0xc00d34ff	-2.2063596
126	0x3fe0624e	1.753
127	0xbf69b1c0	-0.9128685
128	0xbfc18186	-1.5117652
129	0x3fc40944	1.5315328
130	0xbf02c3f4	-0.5108025
131	0xbf7a62e7	-0.97807163
132	0x3fab1ecf	1.3368777
133	0x3d1e635c	0.038668975
134	0xbefcbb36	-0.4936158
135	0x3e5f9145	0.2183276
136	0xbf1364b8	-0.5757556
137	0xbec0592e	-0.3756804
138	0x3f70747a	0.9392773
139	0xbf08fde6	-0.5351242
140	0xbeff4122	-0.4985438
141	0x3f19ad45	0.60030013
142	0xbee3eeb5	-0.44518057
143	0xbf8b53e8	-1.0884981
144	0x3e169001	0.1470337
145	0xbfbbf992	-1.4685538
146	0xbebc01b9	-0.36720064
147	0x3ea6369b	0.32463536
148	0xbf7e29bc	-0.9928243
149	0xbda0e41d	-0.07856009
150	0x3ec915f4	0.3927456
151	0xbdcd9d11	-0.10039724
152	0x3ea12b9e	0.3147859
153	0x3f32635e	0.6968287
154	0xbf8d8dfb	-1.1058954
155	0xbf2c56e4	-0.67320085
156	0x3f4b5bb0	0.7943678
157	0xbf8d7a4f	-1.1052951
158	0x3dc39837	0.09550517
159	0x3f76d3b0	0.9641676
160	0xbf2e7d5a	-0.6816002
161	0x3c29a476	0.010354152
162	0x3f8de11e	1.1084325
163	0x3e5a0ed2	0.21294716
164	0xbf37739a	-0.7166077
165	0x3f9c2ac0	1.2200546
166	0xbe54491f	-0.20731018
167	0xbefa2451	-0.48855832
168	0x3f6d3023	0.92651576
169	0xbf3eecec	-0.74580264
170	0xbf932865	-1.1496702
171	0xbeaf155b	-0.3419598
172	0xbf11d9dc	-0.5697305
173	0x3efa2618	0.48857188
174	0x3ac067c4	0.0014679362
175	0xbf94f41c	-1.1636996
176	0x3ec83b03	0.39107522
177	0xbe1be3be	-0.15223595
178	0xbf8619de	-1.0476644
179	0x3f6f9337	0.9358401
180	0x3f07811a	0.5293137
181	0xbf939a73	-1.1531509
182	0x3e4e4fa8	0.20147574
183	0x3e902d5d	0.2815961
184	0xbe9d4f64	-0.30724633
185	0x3ebc3862	0.36761767
186	0xbf1fab6a	-0.6237093
187	0x3f0808e5	0.5313857
188	0x3f0bd8a0	0.5462742
189	0x3f517e6a	0.8183352
190	0x3edd6c8e	0.43246883
191	0xbf869ece	-1.0517213
192	0x3f91cc7f	1.1390532
193	0xbd494b9d	-0.049144376
194	0xbfcf8dc7	-1.6215142
195	0x3f7aad64	0.97920823
196	0xbf4dd7d3	-0.80407447
197	0xc0178a5c	-2.3678198
198	0xbfbec6e9	-1.4904453
199	0x3e5df98b	0.21677224
200	0xbfd563a2	-1.667103
201	0xbfbf8525	-1.4962507
202	0x3decd25e	0.11563562
203	0xbff6ba7d	-1.9275662
204	0xbf754ea7	-0.9582314
205	0xbdb3221d	-0.08746741
206	0xbfdb4087	-1.7129067
207	0xbfe7572d	-1.8073479
208	0x3cdda093	0.027054107
209	0x3ea3c52b	0.31986365
210	0xbfda310d	-1.7046219
211	0xbd1ecdd4	-0.03877051
212	0x3e4fc519	0.2029003
213	0xbfbb3a73	-1.4627212
214	0xbddae0c7	-0.10687404
215	0x3e39d673	0.18148212
216	0xbf9cb9b9	-1.2244178
217	0xbed16cf2	-0.4090343
218	0xbfaf3458	-1.3687849
219	0xbf95b666	-1.1696289
220	0x3de7df34	0.113218695
221	0xbf76ea08	-0.96450853
222	0xbf28f144	-0.6599314
223	0x3ea48c56	0.32138318
224	0xbe96a35b	-0.29421505
225	0xbe3ed7fb	-0.18637078
226	0x3f837f08	1.0273142
227	0x3f18c311	0.5967265
228	0x3f2b704b	0.6696822
229	0x3f9fe7fa	1.2492669
230	0x3f42fea2	0.7616979
231	0x3f0bcb07	0.5460667
232	0x3f6682c5	0.9004329
233	0x3f78fa33	0.97256774
234	0x3c13b4ba	0.009015257
235	0x3e99c365	0.30031887
236	0xbfa29e5c	-1.2704577
237	0xbd01e65b	-0.031713825
238	0x3ea23335	0.31679693
239	0xbf8c7631	-1.0973569
240	0x3c9463ef	0.018114058
241	0x3e8e61a0	0.27808857
242	0xbf805789	-1.0026714
243	0x3ef324cf	0.4748902
244	0xbf0c8bd2	-0.5490085
245	0xbe9c3336	-0.3050782
246	0x3f1c6b72	0.6110145
247	0xbf5cc034	-0.8623078
248	0xbe129e53	-0.14318208
249	0x3ec62e5c	0.38707244
250	0xbf84b7c1	-1.0368577
251	0x3ded405d	0.11584542
252	0x3ebcbabe	0.36861223
253	0xbf9ef12b	-1.2417349
254	0xbee2b5ef	-0.4427943
255	0x3eea382e	0.45745987
